puyo-classifier_old.pt (torch_old, 490149 bytes, 14 tensors)

conv.0.weight f4 [16, 3, 3, 3]
0	0xbd96eda4	-0.07369545
1	0x3d11f43b	0.035633307
2	0xbdd3fecd	-0.10351334
3	0x3d0ea764	0.034827605
4	0xbe188f18	-0.14898336
5	0x3e0537d0	0.13009572
6	0x3e55a481	0.20863535
7	0x3e14bc21	0.1452489
8	0x3e149666	0.14510497
9	0xbdbfa514	-0.09357658
10	0x3e031121	0.12799503
11	0x3d92a1f2	0.07159795
12	0xbd74fe7a	-0.059813
13	0xbdef0e51	-0.116726525
14	0x3d853b7c	0.06505486
15	0x3e194963	0.14969401
16	0x3e2d1060	0.16900778
17	0xbe11f1c2	-0.1425238
18	0xbde4f689	-0.11179835
19	0x3d9730cf	0.073823564
20	0xbdb12be6	-0.08650951
21	0xbe48f247	-0.19623671
22	0x3e023200	0.12714386
23	0x3d7eb91d	0.062188257
24	0x3dfc9d35	0.12334672
25	0xbe02066b	-0.12697761
26	0xbdfabce6	-0.12243061
27	0xbd989598	-0.07450408
28	0xbd3a5bf5	-0.045497853
29	0x3d529674	0.051413015
30	0xbe600fcb	-0.21881025
31	0x3c5e8f40	0.013583958
32	0x3c569401	0.01309681
33	0x3d05030c	0.03247361
34	0xbd69e106	-0.057099365
35	0x3d90ea42	0.07075931
36	0x3dd9a880	0.10627842
37	0xbdb019cc	-0.0859867
38	0xbe6eef76	-0.23333535
39	0xbc7cf4ca	-0.015439222
40	0xbc0ee8e1	-0.008722515
41	0x3c0abe79	0.008468264
42	0x3da735e8	0.08164579
43	0xbe652e8a	-0.22381034
44	0xbe0734b5	-0.132037
45	0x3e1aa859	0.15103282
46	0x3e3bd992	0.18344715
47	0xbe006773	-0.12539463
48	0x3e344d3b	0.17607586
49	0x3e14f83a	0.14547816
50	0x3d85cb1a	0.06532879
51	0x3ddc0413	0.107429646
52	0x3e05a9fd	0.13053127
53	0xbd3606d9	-0.044440124
54	0x3e6a29ef	0.22867559
55	0xbcb65e20	-0.02226168
56	0x3d2f2904	0.042763725
57	0x3e55e460	0.208879
58	0xbdc4d8c6	-0.09611659
59	0x3d318c81	0.043346886
60	0x3e2a8332	0.1665161
61	0x3cfae92c	0.030628763
62	0x3e006c75	0.12541373
63	0x3d18f857	0.03734621
64	0xbdd901b2	-0.105960265
65	0x3d65f829	0.056144867
66	0x3a794c82	0.0009509997
67	0x3dd5c960	0.104388
68	0xbbe62e90	-0.0070245937
69	0xbe3ed3d3	-0.18635492
70	0xbdc75d09	-0.09734542
71	0xbd2621a5	-0.04055943
72	0xbde6f242	-0.11276676
73	0x3cb27e25	0.021788666
74	0x3d815c94	0.06316486
75	0xbe432f55	-0.19061024
76	0xbe498d96	-0.19682917
77	0x3d94a334	0.07257691
78	0xbe58e0f7	-0.21179567
79	0xbddd68a8	-0.10810977
80	0x3cd0d8ef	0.025494067
81	0xbe2c3e77	-0.16820703
82	0x3c1a7572	0.009427415
83	0xbde98bbb	-0.114036046
84	0x3c24a247	0.010048456
85	0xbe11ee78	-0.14251125
86	0xbdc29725	-0.09501485
87	0x3e18c4b4	0.14918786
88	0xbd2c621f	-0.042085763
89	0xbe4a7e47	-0.19774733
90	0x3ddf374c	0.10899219
91	0x3dc4186f	0.09574973
92	0xbdcd69ab	-0.1002992
93	0x3c826492	0.015917096
94	0xbbe7dbc8	-0.0070757605
95	0x3dad1d8e	0.08452903
96	0xbd156475	-0.036472756
97	0xbdd47977	-0.1037473
98	0xbdb59e7c	-0.08868119
99	0x3d7ee207	0.062227275
100	0x3e68154d	0.22664376
101	0x3d8b54f1	0.06803311
102	0xbc73ba17	-0.01487591
103	0x3e122245	0.14270885
104	0x3df3e52b	0.11908945
105	0x3e5190d7	0.20465408
106	0x3df9c6d1	0.12196124
107	0xbd37c2fe	-0.044863693
108	0xbe321266	-0.17389831
109	0xbd861749	-0.0654741
110	0xbe3abec0	-0.18236828
111	0xbd79f5cc	-0.061025426
112	0x3dabecc0	0.08394766
113	0xbd7f54c3	-0.062336694
114	0xbe0d988c	-0.13827723
115	0x3e030d45	0.1279803
116	0xbe743c08	-0.23851025
117	0xbddca77f	-0.10774135
118	0x3dcea044	0.10089162
119	0xbe51d421	-0.20491077
120	0x3e0654d0	0.13118291
121	0x3e1424a8	0.14467108
122	0x3d79301d	0.0608369
123	0xbe19168e	-0.1495001
124	0x3d0b76c5	0.034048814
125	0xbc4b2856	-0.012399754
126	0xbcc47447	-0.023981227
127	0xbde80222	-0.11328532
128	0xbddf7f05	-0.10912899
129	0xbc2713f3	-0.010197627
130	0x3e138be9	0.1440884
131	0x3e4eccd3	0.20195322
132	0xbbd22240	-0.0064127743
133	0x3e1a1216	0.15045962
134	0x3dcf026a	0.10107882
135	0x3d19a55c	0.037511215
136	0xbe3973f7	-0.18110643
137	0xbe0c3b39	-0.13694467
138	0x3d58edfb	0.05296133
139	0x3dc2bf22	0.09509112
140	0xbe32ba48	-0.17453873
141	0xbd1ac693	-0.03778703
142	0xbe32a95e	-0.17447421
143	0xbe0b7e3b	-0.13622372
144	0xbc00de5e	-0.0078655165
145	0x3e2253b2	0.1585224
146	0x3e12085c	0.14261001
147	0x3d9ea689	0.07746608
148	0xbd837176	-0.06418125
149	0xbe22cfe0	-0.1589961
150	0x3e085435	0.13313372
151	0xbd6e3d95	-0.058164198
152	0xbdf9f3b8	-0.12204689
153	0xbda18332	-0.07886352
154	0x3db14fff	0.08657836
155	0xbe34c105	-0.17651756
156	0xbcb8a540	-0.022539735
157	0xbe12509c	-0.14288563
158	0x3e25fbdc	0.16209358
159	0xbe2d674f	-0.1693394
160	0xbb11b143	-0.00222309
161	0x3e333982	0.17502406
162	0xbe0bedb8	-0.13664901
163	0xbd2b1482	-0.041767605
164	0x3d65a832	0.056068607
165	0xbe023b51	-0.1271794
166	0xbe580b3f	-0.2109804
167	0x3e13d483	0.14436536
168	0xbda46292	-0.08026613
169	0xbc1afbcf	-0.00945945
170	0xbe615259	-0.2200407
171	0x3e42da69	0.1902863
172	0x3caffe1d	0.021483475
173	0xbd76c05d	-0.060242046
174	0x3e203018	0.15643346
175	0xbd81fa62	-0.06346585
176	0x3dcb1ff8	0.09918207
177	0x3e3ef897	0.18649517
178	0x3e4dfcfb	0.20116036
179	0x3e105afc	0.14097208
180	0x3d8546cd	0.06507645
181	0x3d903c74	0.070427805
182	0xbe1e3f81	-0.15453912
183	0xbe29eb56	-0.1659368
184	0xbe04adba	-0.12956896
185	0x3e03cd96	0.12871394
186	0x3e2e451f	0.17018555
187	0xbdf7dba2	-0.121024385
188	0xbd82f453	-0.063942574
189	0x3dfdf2c0	0.123998165
190	0x3a90dbe3	0.001105186
191	0x3c7ec8fe	0.01555085
192	0xbe47186e	-0.19442913
193	0x3dd05537	0.101725034
194	0x3dd68d8e	0.10476218
195	0x3d8347de	0.06410192
196	0x3e275152	0.16339615
197	0xbda62b52	-0.081137314
198	0xbd7854e5	-0.060627837
199	0xbdac80b2	-0.08422984
200	0x3c32a386	0.010903245
201	0xbdf42e6d	-0.119229175
202	0xbe5234a0	-0.20527887
203	0x3e00b3fe	0.12568662
204	0xbd6ad337	-0.057330336
205	0xbbf0e574	-0.0073515717
206	0xbdf3576e	-0.1188191
207	0x3e33ccb4	0.17558557
208	0x3e04be55	0.12963231
209	0x3ce76aec	0.028249227
210	0x3e422e62	0.18963006
211	0x3e2a6824	0.16641289
212	0x3e42c4ea	0.19020429
213	0xbb0b99d5	-0.0021301408
214	0x3d40cbdf	0.047069427
215	0x3d8d8637	0.06910365
216	0xbe40a764	-0.18813854
217	0x3de17adb	0.11009761
218	0x3df4e5f8	0.119579256
219	0x3de61210	0.11233914
220	0xbe1d10e6	-0.15338477
221	0xbd2785d9	-0.04089913
222	0xbdafc4ad	-0.08582435
223	0x3d6299c3	0.05532242
224	0x3d85fbfc	0.06542203
225	0xbe1ce6f2	-0.15322474
226	0x3d194f68	0.037429243
227	0xbd71a5a1	-0.058995847
228	0x3dca0b11	0.09865392
229	0xbe1c808c	-0.15283412
230	0xbd16bf97	-0.036803808
231	0x3b2ff7a4	0.0026850486
232	0xbda6de97	-0.081479244
233	0xbe070365	-0.13184889
234	0x3e135711	0.14388682
235	0x3e387fa4	0.18017441
236	0xbd67ab1c	-0.056559667
237	0xbcacf59d	-0.021113211
238	0xbde0a606	-0.109691665
239	0x3e4073dc	0.18794197
240	0xbe16dfe0	-0.14733839
241	0x3e53c52b	0.20680682
242	0x3de4617b	0.111514054
243	0xbdfc5d6e	-0.12322508
244	0x3d8bcaee	0.06825815
245	0xbe3b2d9a	-0.18279114
246	0xbd3ffb8a	-0.046870746
247	0x3e24edac	0.1610629
248	0xbdbebf7a	-0.09313865
249	0x3dc54670	0.096325755
250	0xbe233bcd	-0.15940781
251	0xbc2612c8	-0.010136314
252	0xbdca75d8	-0.09885758
253	0x3d5c13b3	0.053729724
254	0xbe158fdd	-0.1460566
255	0x3cf0d670	0.029399127

conv.0.bias f4 [16]
0	0xbdac52f8	-0.084142625
1	0x3d4b0578	0.049565762
2	0xbceebdd3	-0.02914325
3	0x3e23e66a	0.16005865
4	0x3e49f8fd	0.19723888
5	0x3defeed1	0.117154725
6	0x3dcc78c1	0.099839695
7	0xbe30ed6e	-0.17278072
8	0xbdfe4c6c	-0.1241692
9	0xbde2f26a	-0.11081393
10	0xbd1d4b0c	-0.03840165
11	0xbc7266b2	-0.014794992
12	0xbdb1d510	-0.086832166
13	0x3e2fd3aa	0.17170587
14	0xbe09cd12	-0.13457134
15	0x3c8e9904	0.017406948

conv.3.weight f4 [32, 16, 3, 3]
0	0x3cb96804	0.022632606
1	0x3b29e07b	0.0025921154
2	0x3d5f5e54	0.054533318
3	0x3c4e6aae	0.012598677
4	0xbd1c6fef	-0.038192686
5	0x3d91e2c3	0.071233295
6	0xbcc6c3a2	-0.024263207
7	0xbcbfba58	-0.023404285
8	0x3dc39b92	0.09551157
9	0xbcd0187d	-0.025402302
10	0x3c91fbcb	0.01782026
11	0x3cea4f83	0.028602367
12	0xbc13ed10	-0.009028688
13	0x3c2c6b2f	0.010523601
14	0x3ddb5242	0.10709049
15	0x3df2a7af	0.11848389
16	0xbc83a552	-0.016070042
17	0x3cb17ee3	0.02166695
18	0xbcc89414	-0.024484672
19	0x3d82a258	0.06378621
20	0x3c336bac	0.010950964
21	0xbd8a5fdc	-0.06756565
22	0x3c226c1e	0.009913472
23	0xbcadf3e7	-0.021234466
24	0x3d820cd5	0.06350104
25	0xba694fe1	-0.00089001475
26	0x3ccc0f79	0.024909722
27	0x3da94bd0	0.08266413
28	0x3dbc10af	0.0918287
29	0x3d18e755	0.03732999
30	0x3bb43a0b	0.0055000833
31	0x3c2ded8b	0.010615717
32	0x3cb0da94	0.021588601
33	0x3b6db385	0.0036270332
34	0x3daccd0d	0.08437548
35	0x3d9f4e89	0.07778651
36	0xbd1eabce	-0.038738064
37	0xbcb4f1c1	-0.022087933
38	0x3cddb137	0.027062042
39	0xbc8770bb	-0.016533246
40	0xbd13f974	-0.03612657
41	0xbd612556	-0.054967247
42	0x3d9d7b39	0.076895185
43	0x3d2fcb8b	0.042918723
44	0xbc7a8990	-0.0152915865
45	0x3b2b4920	0.0026136115
46	0xbd55dbce	-0.052211575
47	0x3d7ac998	0.06122741
48	0xbd2555a3	-0.040364873
49	0x3d15dc27	0.036586907
50	0xbcf1cca7	-0.029516531
51	0xbaa5c72d	-0.001264786
52	0xbd99917d	-0.07498453
53	0x3cb24714	0.021762408
54	0x3cdb68de	0.026783403
55	0x3d92c601	0.071666725
56	0xbda60b86	-0.08107667
57	0xbc99d21f	-0.018776951
58	0xbca936a7	-0.020655943
59	0xbc29bb0c	-0.010359537
60	0xbd5d6d64	-0.0540594
61	0x3d0e26ed	0.03470509
62	0xbd250017	-0.04028329
63	0xbd11dce1	-0.035611037
64	0xbd2ca0bc	-0.042145476
65	0xbd221fc1	-0.039581064
66	0xbc882273	-0.01661799
67	0x3d42c9ba	0.047555663
68	0x3d8bec73	0.068322085
69	0x3da083fb	0.07837673
70	0x3d8e2623	0.06940868
71	0xbc742fb5	-0.014903952
72	0x3ccc243a	0.024919618
73	0x3d60e88f	0.054909285
74	0x3dc0c291	0.094121106
75	0x3d616f32	0.055037685
76	0xbc045a82	-0.008078219
77	0x3dba3a9a	0.090932086
78	0x3df4ebf5	0.11959068
79	0x3dd5d600	0.10441208
80	0x3d37e72c	0.044898197
81	0xbd0671ea	-0.03282348
82	0x3d4fe39a	0.050754167
83	0x3d04c7ee	0.03241723
84	0xbd3c2390	-0.045932353
85	0x3bea8c36	0.0071578277
86	0xbc4fd8b8	-0.012685947
87	0x3bf4aa1a	0.0074665667
88	0x3d4340fc	0.047669396
89	0xbc1f6b82	-0.009730222
90	0x3dd9cf2d	0.10635219
91	0x3d924d04	0.07143596
92	0x3de27a11	0.110584386
93	0x3d073428	0.033008724
94	0xbba6b355	-0.005087296
95	0xbd0f36ff	-0.034964558
96	0x3dba31f7	0.09091561
97	0x3d09523d	0.033525694
98	0x3d46aae3	0.048502814
99	0x3d9a1ba6	0.07524805
100	0x3da45c42	0.08025409
101	0xbcb7da2a	-0.022442896
102	0x3cffcd48	0.031225815
103	0xbd8cc1cd	-0.06872902
104	0xbd4313c0	-0.047626257
105	0x3ccd7310	0.02507928
106	0x3ca2fe0a	0.019896526
107	0x3d2439d1	0.0400942
108	0x3dea95d7	0.11454361
109	0x3d88c3de	0.06677984
110	0x3b1940ad	0.0023384497
111	0xbc1f1a89	-0.009710916
112	0x3d4882a9	0.048952732
113	0x3ddf893d	0.10914848
114	0x3c65b6b2	0.014020609
115	0xbcb9afc6	-0.022666823
116	0x3d374274	0.04474111
117	0x3c9c71e5	0.019097278
118	0xbd810917	-0.06300562
119	0xbd88a960	-0.06672931
120	0xbc3ea6c5	-0.011636441
121	0x3d665ffd	0.056243885
122	0x3ce6d7f2	0.028179143
123	0xbc99452d	-0.018709743
124	0x3c89ebd7	0.01683609
125	0xbd95cb2b	-0.07314142
126	0x3b6d52dd	0.003621272
127	0x3c2da3df	0.010598152
128	0xbd160322	-0.03662408
129	0xbc702408	-0.014657028
130	0x3d1973b0	0.037463844
131	0x3dfbfa0b	0.12303551
132	0x3ce3a29a	0.027787495
133	0x3d07e71e	0.033179395
134	0x3c2269a1	0.009912879
135	0xbc7e3a30	-0.015516803
136	0xb9b903da	-0.0003528882
137	0x3d215e35	0.039396483
138	0xbd05a8fc	-0.03263186
139	0x3bdb4f02	0.006692768
140	0xbd11700c	-0.035507247
141	0xbda33a67	-0.07970124
142	0x3d382fa2	0.0449673
143	0x3d5cdb0e	0.053919844
144	0x3d84687b	0.064652406
145	0x3d39aca1	0.045330647
146	0xbb8b7387	-0.0042557153
147	0x3d2b6625	0.04184546
148	0x3c8fa569	0.017534928
149	0x3d77e93d	0.060525168
150	0xbd837e73	-0.06420603
151	0x3ce2ad0d	0.027670408
152	0xbd8fc8b8	-0.07020706
153	0xbd61c4e4	-0.05511941
154	0xbcfabc78	-0.030607447
155	0x3d4cfe4a	0.050047196
156	0xbcf97761	-0.030452432
157	0x3d290e0f	0.041273173
158	0x3d3730f7	0.04472443
159	0x3cfdde98	0.03098993
160	0x3d000f49	0.031264577
161	0xbd5931b6	-0.053025924
162	0xbcc2bd1d	-0.023771817
163	0x3cd35643	0.025797969
164	0x3cc54f51	0.024085673
165	0xbda85674	-0.082196146
166	0xbd5b7ee6	-0.053587817
167	0x3d1ff43d	0.039051283
168	0x3cb62907	0.02223636
169	0x3c036890	0.008020535
170	0xbdbb66bf	-0.09150457
171	0x3dd409df	0.10353445
172	0xbd2206e8	-0.039557368
173	0x3c87b61f	0.016566334
174	0x3da98ef4	0.08279219
175	0xbb5fe92b	-0.0034166079
176	0x3d6fe058	0.05856356
177	0x3d9e629d	0.07733653
178	0xbd751ce3	-0.059842
179	0x3dd0e6bd	0.1020026
180	0x3d622dd8	0.0552195
181	0x3d8fb912	0.07017721
182	0xbd1ecfe5	-0.038772482
183	0x3db9041d	0.09033988
184	0x3d47b24e	0.04875403
185	0x3c95d17d	0.018288368
186	0xbd2c07bd	-0.041999567
187	0x3d8cf5a0	0.06882787
188	0x3da98fb5	0.08279363
189	0xbc8e1a9b	-0.01734667
190	0x3de3f977	0.11131566
191	0x3d83c6c1	0.06434394
192	0x3d47c2f9	0.048769925
193	0x3d063785	0.03276779
194	0x3dbc44fb	0.091928445
195	0xbd3977a6	-0.04528012
196	0xbc29c0a8	-0.010360874
197	0x3cef54f4	0.029215313
198	0x3d79cdb6	0.060987197
199	0x3d903af9	0.07042498
200	0xbbf427a1	-0.007451013
201	0xbd14f99c	-0.03637086
202	0x3d0d9bf8	0.03457257
203	0x3d6e1eef	0.05813497
204	0x3dac911f	0.08426117
205	0x3cc316d8	0.023814604
206	0xbd3f5949	-0.04671601
207	0x3d8e47a7	0.0694726
208	0xbd131b89	-0.03591493
209	0x3d82193c	0.06352469
210	0x3d9a09b5	0.07521383
211	0x3d1cdeba	0.038298346
212	0x3aae9b61	0.0013321453
213	0x3b7e3b5d	0.0038792707
214	0xbd08d5c3	-0.033406984
215	0x3d564b79	0.05231807
216	0xbdbba85f	-0.091629736
217	0xbdc85de0	-0.0978353
218	0x3d02ee0a	0.031965293
219	0xbc128760	-0.008943409
220	0xbd9cb9a4	-0.07652596
221	0xbd587cd8	-0.052853435
222	0x3d37c43a	0.04486487
223	0x3cef02f5	0.029176215
224	0x3d506f8d	0.050887633
225	0x3d8560de	0.065126166
226	0x3c87f23f	0.016595004
227	0x3baf336f	0.0053467075
228	0x3a844117	0.0010090199
229	0x3b58cf86	0.0033082678
230	0x3d0b1e31	0.03396434
231	0xbd8a869a	-0.067639545
232	0x3caba4d3	0.020952618
233	0xbc95b270	-0.018273562
234	0xbd3db36f	-0.0463137
235	0x3bdf5828	0.006815929
236	0xbcbc4de3	-0.022986358
237	0xbd34c3e0	-0.044132113
238	0x3cec2615	0.028826753
239	0xbb75edb5	-0.0037525718
240	0xbc0f7ec5	-0.008758252
241	0x3bdb8258	0.006698888
242	0x3ca7d6a8	0.020488098
243	0xbd712514	-0.05887325
244	0x3d879fdf	0.0662229
245	0x3d2c3c61	0.04204977
246	0x3d05c814	0.032661512
247	0xbd8d6dfe	-0.06905745
248	0xbd675272	-0.05647511
249	0xbc1604e2	-0.009156438
250	0xbceb1a3d	-0.028699035
251	0xbd0dacd2	-0.034588642
252	0xbd5938c3	-0.053032648
253	0x399318c0	0.00028056465
254	0xbcac235c	-0.021012954
255	0xbb8f2994	-0.00436897

conv.3.bias f4 [32]
0	0x3db4fc77	0.08837216
1	0xbabbf69f	-0.0014340467
2	0xbd14f73f	-0.036368605
3	0x3db623a0	0.08893514
4	0x3ddeb6b7	0.10874694
5	0xbd2d18a2	-0.04225982
6	0x3d5f7747	0.05455711
7	0x3da73a5d	0.08165429
8	0xbd963bd8	-0.07335633
9	0x3d9b4ad0	0.07582629
10	0xbd885beb	-0.06658157
11	0xbca6a5a6	-0.02034266
12	0x3d9bb091	0.07602037
13	0xbd9587ff	-0.0730133
14	0x3d9a9af4	0.07549086
15	0x3d469664	0.048483267
16	0xbd4ef315	-0.05052479
17	0x3c6f0a22	0.014589818
18	0xbbdc3361	-0.006719992
19	0x3d6dc449	0.05804852
20	0xbb152153	-0.0022755458
21	0x3d985d47	0.07439666
22	0x3d885612	0.066570416
23	0xbd0c149b	-0.03419934
24	0x3bef0fb4	0.007295573
25	0xbd539c24	-0.05166258
26	0x3d9e65a2	0.07734229
27	0x3d9eeb64	0.07759741
28	0x3c5067b7	0.01272004
29	0x3cabeddf	0.02098745
30	0x3db040a0	0.08606076
31	0xbce23042	-0.027610902

conv.5.weight f4 [10, 32, 3, 3]
0	0x3dafe943	0.08589413
1	0x3cab9496	0.020944875
2	0x3d86cacb	0.065816484
3	0x3ce1a91f	0.027546464
4	0x3daeedfd	0.085414864
5	0xbca36e7b	-0.019950142
6	0x3da89419	0.082313724
7	0x3d992c47	0.07479148
8	0x3d6d1c8d	0.057888556
9	0xbd0224b6	-0.03177329
10	0x3cfc2788	0.030780569
11	0x3d24bf8f	0.040221747
12	0x3be81fb3	0.007083857
13	0xbcb03a7d	-0.021512264
14	0x3c00d065	0.007862185
15	0xbd1e85e1	-0.038701896
16	0xbab6df1d	-0.0013951991
17	0xbc1fc26e	-0.0097509455
18	0x3ccd1466	0.02503414
19	0x3d315abf	0.043299433
20	0xba294bbb	-0.0006458123
21	0x3d417306	0.047228836
22	0x3c80c82f	0.015720455
23	0xbc2e1f1e	-0.010627536
24	0x3d879ff0	0.066223025
25	0x3c143c2b	0.009047548
26	0x3d1678df	0.036736365
27	0x3c4fc361	0.012680859
28	0x3d13c581	0.036077026
29	0x3d51f29a	0.051256754
30	0xbba8504d	-0.0051365257
31	0x3d8f1da2	0.06988074
32	0xbccd7f87	-0.025085224
33	0x3ce8bf3c	0.0284115
34	0x3d93aa80	0.07210255
35	0x3d0cd72c	0.03438489
36	0xbc1607ff	-0.00915718
37	0x3bc4ed11	0.006009706
38	0xbcb5f0d0	-0.022209555
39	0x3d173229	0.03691307
40	0x3d9e9a7f	0.077443115
41	0x3db20b0a	0.08693512
42	0x3db6f0fa	0.089326814
43	0x3dad3030	0.08456457
44	0x3d22e4fa	0.03976915
45	0xbd132906	-0.035927795
46	0x3d9f2bae	0.07772003
47	0x3d80d483	0.062905334
48	0x3da06713	0.0783216
49	0x3d4034b6	0.04692527
50	0x3d888256	0.066654846
51	0x3c1e7667	0.009671784
52	0xbba7e76b	-0.0051240227
53	0xbcd3a7ee	-0.025836911
54	0x3c083cd7	0.008315287
55	0xbd225112	-0.039628096
56	0xbd45746b	-0.048206728
57	0xbd0e90a8	-0.034805924
58	0xbd62174d	-0.055198003
59	0xbdc3bcc8	-0.095574915
60	0xbb900712	-0.004395374
61	0xbce08a48	-0.027409688
62	0xbc6877bd	-0.014188704
63	0xbced8669	-0.028994756
64	0x3d0e9751	0.034812275
65	0xbd0eb2d3	-0.03483851
66	0x3d805cb8	0.06267685
67	0x3d16435d	0.036685336
68	0x3d6b0f39	0.057387564
69	0xbcd646d3	-0.026156818
70	0x3d357e32	0.044309802
71	0x3c3c5de1	0.011496992
72	0x3d88f978	0.066882074
73	0x3d0283bd	0.031863917
74	0x3d5e8814	0.054328993
75	0xbc56b56b	-0.013104777
76	0x3cbd9cb4	0.023146011
77	0x3ce82347	0.028337134
78	0x3d42411c	0.047425374
79	0xb9d7ff81	-0.0004119836
80	0x3d6dfcda	0.058102466
81	0xbcb79bd6	-0.022413176
82	0xbd9222f8	-0.07135576
83	0xbd24356a	-0.040090002
84	0xbd60eb91	-0.054912154
85	0x3cb40ea5	0.02197964
86	0x3b7bbb0b	0.0038411047
87	0x3c8fc8bb	0.01755177
88	0x3d087774	0.033317044
89	0x3cd51067	0.026008798
90	0x3d8a7cb8	0.067620695
91	0x3d7b6e97	0.061384764
92	0x3cd15886	0.025554907
93	0x3db0dba8	0.08635646
94	0x3dcebdec	0.100948185
95	0x3da169a0	0.078814745
96	0x3c20172d	0.009771151
97	0x3d64c665	0.055853266
98	0x3cdb7e9e	0.026793774
99	0x3ce8e9ce	0.0284318
100	0xbca4eda2	-0.020132843
101	0x3d000458	0.031254143
102	0x3d6ff7e8	0.05858603
103	0x3d4ce988	0.0500274
104	0x3cc37ecc	0.023864172
105	0x3c94b6f8	0.018153653
106	0x3c2ac02f	0.010421797
107	0x3c654108	0.013992555
108	0x3c946739	0.018115627
109	0x3ba02f67	0.0048884633
110	0x3d27e254	0.040987328
111	0xbd54eaf0	-0.051981866
112	0xbcf141d7	-0.02945034
113	0xbd68115f	-0.05665719
114	0x3d5369ae	0.051614456
115	0xbd3238db	-0.043511253
116	0xbd44c030	-0.048034847
117	0x3db0ddad	0.08636031
118	0x3d9d780f	0.07688915
119	0xbc9d458c	-0.019198202
120	0x3cedd584	0.029032476
121	0x3b82673a	0.0039795907
122	0x3d22902e	0.03968828
123	0x3daf9322	0.08572985
124	0x3db8091c	0.089861125
125	0x3d91ad4c	0.07113132
126	0xbc7c22fd	-0.015389201
127	0xbb171192	-0.0023051244
128	0xbd7b1ee9	-0.061308775
129	0xbd8df7a1	-0.06931997
130	0xbd2fd94c	-0.04293184
131	0xbd422704	-0.04740049
132	0xbca01b6c	-0.019544326
133	0xbd9acca8	-0.07558566
134	0xbd87c2c6	-0.06628947
135	0x3d8c7282	0.06857778
136	0x3dbea669	0.09309084
137	0x3d0614aa	0.03273455
138	0x3d8b55cc	0.06803474
139	0x3dbb5caa	0.09148534
140	0x3d5f462a	0.054510273
141	0xbc8b7b68	-0.017026618
142	0xbc47f660	-0.0122047365
143	0xbc8367bd	-0.016040677
144	0x3d6f400b	0.058410686
145	0xbcaec02c	-0.021331869
146	0xbc9bc006	-0.019012462
147	0x3c551efa	0.013007874
148	0x3c0ff5b2	0.008786606
149	0xbceed6ed	-0.029155219
150	0x3cf9363f	0.030421374
151	0xbcb5e7db	-0.022205284
152	0xbc7daf2d	-0.01548366
153	0xbd6e9ac9	-0.058253083
154	0xbd4b53a8	-0.049640328
155	0xbc5bbb9c	-0.013411429
156	0xbda4623b	-0.080265485
157	0xbc8e6fa5	-0.01738722
158	0xbcdb085d	-0.026737386
159	0xbd78bb25	-0.06072535
160	0x3c062ddc	0.008189645
161	0xbc24f340	-0.010067761
162	0x3d3a5cb1	0.045498554
163	0x3ccdbe5e	0.025115188
164	0x3d2c0452	0.041996308
165	0x3d0d1577	0.0344443
166	0x3d14c44b	0.036320012
167	0xbce02930	-0.02736339
168	0x3d881551	0.06644691
169	0x3d9174bd	0.07102344
170	0xbcb17e38	-0.021666631
171	0x3d008d2e	0.03138464
172	0x3c9fcda0	0.01950723
173	0x3c420c08	0.011843689
174	0xbd3e5a25	-0.046472687
175	0xbcc6b090	-0.024254113
176	0x3d0f0c4b	0.034923833
177	0xbd901011	-0.070343144
178	0xbd39ef38	-0.045394152
179	0xbc96ae05	-0.018393526
180	0xbc86e9d6	-0.016468924
181	0x3d51cf74	0.051223233
182	0x3c2b37b4	0.010450292
183	0xbcea5dbe	-0.028609153
184	0xbc25132c	-0.010075372
185	0x3d24f62a	0.040273823
186	0x3cdb5693	0.02677468
187	0x3d47c1f2	0.048768945
188	0x3cbcaa04	0.023030289
189	0xbb950a66	-0.0045483587
190	0xbb11166e	-0.0022138613
191	0xbb3345d4	-0.0027354853
192	0xbcbfc2e4	-0.02340836
193	0x3cbea045	0.023269782
194	0xbce0beac	-0.02743467
195	0xbd448029	-0.047973786
196	0x3a18f463	0.00058347563
197	0xbc89a0dd	-0.016800338
198	0x3d953118	0.072847545
199	0x3d1ab4aa	0.03776995
200	0xbcc465b3	-0.023974275
201	0x3d330525	0.043706078
202	0x3d43a0f5	0.047760922
203	0xbd071aba	-0.032984473
204	0x3d8540b8	0.06506485
205	0x3d5b60b2	0.053559013
206	0x3d1d5f16	0.03842076
207	0x3bfcf38a	0.007719462
208	0xbc86982e	-0.016429987
209	0xbc8e464c	-0.017367505
210	0xbc3ac97a	-0.011400575
211	0xba963462	-0.0011459703
212	0x3ca0e535	0.019640544
213	0xbb864eba	-0.0040987404
214	0xbd7e99aa	-0.062158264
215	0x3c8cd032	0.017189119
216	0xbd8f0df0	-0.0698508
217	0xbc9142c3	-0.01773203
218	0xbd5a2448	-0.053257257
219	0xbd43b995	-0.047784407
220	0xbb78d158	-0.0037966575
221	0x3c8479e3	0.016171401
222	0x3d01343b	0.03154395
223	0xbd6ff4cb	-0.058583062
224	0xbc34853b	-0.011018093
225	0x3c919166	0.017769527
226	0x3cb2690f	0.021778611
227	0x3d475348	0.048663408
228	0x3d01e220	0.03170979
229	0xbd4c84d8	-0.049931377
230	0x3d46926e	0.04847949
231	0x3b4ae872	0.0030961302
232	0x3d53d409	0.051715884
233	0xbb719e70	-0.0036868118
234	0x3c1b1c3e	0.009467183
235	0xbc9975cb	-0.018732926
236	0x3d60ba20	0.054865003
237	0xbd44d399	-0.048053358
238	0xbc2e4685	-0.01063693
239	0x3c0185f1	0.007905469
240	0x3cd51636	0.026011568
241	0x3d417f2a	0.047240414
242	0xbcd9a275	-0.026566723
243	0xbd8ba926	-0.06819372
244	0xbd7893e0	-0.0606879
245	0xbd973a11	-0.07384122
246	0xbd7338d1	-0.059380356
247	0xbce2627d	-0.027634853
248	0xbd8411de	-0.064487204
249	0x3cec19ff	0.02882099
250	0xbcb40ac7	-0.021977795
251	0xbd09d57d	-0.033650864
252	0xbb139e35	-0.0022524719
253	0xbd2a6792	-0.04160268
254	0xbbb08af6	-0.005387659
255	0xbbbcd8e0	-0.005763158

conv.5.bias f4 [10]
0	0x3d7e8786	0.062140964
1	0xbd2fb001	-0.04289246
2	0x3d107d19	0.035275552
3	0x3d62b902	0.05535222
4	0xbd384ced	-0.044995237
5	0x3c8c8870	0.017154902
6	0x3c2cf3b6	0.010556152
7	0x3d551407	0.052021053
8	0x3ce0417d	0.027374977
9	0x3d63fe0c	0.0556622

fc.0.weight f4 [100, 1100]
0	0x3cda2eb7	0.026633603
1	0x3c00305f	0.007824033
2	0x3c913946	0.017727505
3	0xbc097fbd	-0.008392272
4	0x3c637ce1	0.013884754
5	0x3d0b968b	0.034079116
6	0x3cef740f	0.029230146
7	0xbca14dbc	-0.019690387
8	0x3bec5006	0.007211688
9	0xb9eb79e7	-0.00044913517
10	0x3c4006c0	0.011720359
11	0xbc956ce5	-0.018240402
12	0xbc0e298b	-0.008676897
13	0x3c511cd7	0.012763224
14	0x3bcfd4c1	0.006342501
15	0x3c3f5694	0.011678357
16	0xbc8a9f06	-0.016921531
17	0x3cdf55b1	0.02726254
18	0x3c1aaedb	0.009441103
19	0x3cbcda9e	0.023053464
20	0x3c89d51a	0.016825248
21	0x3d0f6ba8	0.03501478
22	0xbc0f0c16	-0.008730909
23	0x3c0ede9d	0.008720067
24	0xbc9d356b	-0.01919051
25	0x3a9a77c6	0.0011784963
26	0x3ceb8a08	0.028752342
27	0xbca84beb	-0.020544013
28	0x3cf5a601	0.029986383
29	0x3c23e0bd	0.010002312
30	0x3d1ecfe0	0.038772464
31	0x3cec4229	0.028840141
32	0x3d099d07	0.03359702
33	0x3ccb285f	0.024799524
34	0x3c0fbf8e	0.008773698
35	0x3cb30c5d	0.021856481
36	0x3cde441e	0.02713209
37	0xbc514330	-0.012772366
38	0x3c3b0fe1	0.01141736
39	0x3cc8a6fa	0.024493683
40	0x3cd2c575	0.02572892
41	0x3a328236	0.0006809564
42	0x3cec5695	0.02884988
43	0xbca9b5b7	-0.020716531
44	0xba691250	-0.00088909734
45	0x3b983c45	0.0046458566
46	0x3ce4c2e8	0.02792497
47	0x3c56bb9c	0.013106253
48	0x3d067ed7	0.032835808
49	0xbae6b7f3	-0.0017602429
50	0x3c0dcfb2	0.008655475
51	0x3c635e06	0.013877397
52	0x3c9943bc	0.018709056
53	0x3d1a6a79	0.037699196
54	0xbb5d313e	-0.0033751274
55	0xbbb1ce81	-0.0054262285
56	0xbc011cc4	-0.007880393
57	0x3c1c4bdb	0.00953957
58	0xbbc59ec4	-0.006030889
59	0xbacf7d85	-0.0015830254
60	0x3d0cffb8	0.03442356
61	0x3cc9cf03	0.024634844
62	0x3c94db91	0.018171104
63	0x3cf548b8	0.029941902
64	0xbc78f1a9	-0.015194335
65	0x3c3ccda9	0.011523643
66	0x3cad46ad	0.021151865
67	0xbcc9a619	-0.024615334
68	0x3cac367d	0.021022076
69	0x3d0ed039	0.034866545
70	0x3ce7797c	0.02825617
71	0xbc380946	-0.01123268
72	0x3b476341	0.003042415
73	0x3b461b83	0.00302288
74	0x3d16e494	0.036839083
75	0xbc1835fa	-0.009290213
76	0x3c045c72	0.008078681
77	0x3c80a79b	0.01570492
78	0x3c013d30	0.007888123
79	0x3cc6812f	0.024231521
80	0xbbe52ca8	-0.006993849
81	0x3d1a3f7d	0.037658203
82	0x3c8040d2	0.015655909
83	0x3c8d3bb8	0.01724039
84	0x3c6c381d	0.014417675
85	0xbc6657c4	-0.014059011
86	0xbcb7a8bd	-0.022419328
87	0xbca3dcc2	-0.020002726
88	0x3ca0a390	0.019609243
89	0x3d04c99c	0.032418832
90	0xbc7412e1	-0.014897079
91	0xbba1131d	-0.0049156086
92	0x3c4fad4b	0.012675594
93	0xbc03d9bd	-0.008047518
94	0xbbc5e345	-0.0060390555
95	0x3d0bdc2c	0.03414552
96	0xbcad49b1	-0.021153303
97	0xbcc3760b	-0.023859998
98	0x3ca401f3	0.02002046
99	0x3c727c98	0.014800213
100	0x3c91fa26	0.017819475
101	0xbb056912	-0.0020356816
102	0x3cad77d8	0.02117531
103	0xbbcfb345	-0.0063385093
104	0x3cd55715	0.0260425
105	0x3cc7161a	0.024302531
106	0xbbf0f700	-0.0073536634
107	0x3cd76906	0.026295196
108	0x3c15ceeb	0.009143571
109	0xbc40f8b4	-0.011778045
110	0x3c24e8d6	0.010065278
111	0xbcd367b3	-0.025806284
112	0xbd2ad8e7	-0.04171076
113	0xbd2855c1	-0.041097406
114	0xbb916703	-0.004437329
115	0xbcf117a3	-0.029430216
116	0xbcf87c6f	-0.030332772
117	0x3c8d029b	0.017213156
118	0xbcbc92c4	-0.023019202
119	0xbb45b19c	-0.0030165678
120	0xbd257cfd	-0.0404024
121	0xbd04bd87	-0.03240731
122	0x3a7e628a	0.00097040145
123	0xbcec1f07	-0.028823389
124	0x3c10f97e	0.008848546
125	0xbcb52e6d	-0.022116864
126	0xbcbd0c80	-0.02307725
127	0x3c927ab2	0.017880771
128	0x3c932f59	0.017966913
129	0x3c3d5822	0.011556657
130	0xbccc6c61	-0.024954023
131	0xbc3595f9	-0.01108312
132	0xbd2d8675	-0.042364556
133	0x3b62215a	0.0034504742
134	0xbd30c7cd	-0.043159295
135	0x3c62a0c5	0.013832276
136	0xbc61c9db	-0.013781036
137	0xbd14e0c5	-0.03634717
138	0xbd23433c	-0.03985904
139	0x3bd9316d	0.0066282065
140	0xbd0d1fe8	-0.034454256
141	0xbcde0c77	-0.027105553
142	0xbd034088	-0.032043964
143	0xbc590016	-0.013244649
144	0xbce32e63	-0.02773208
145	0xbd0e731d	-0.03477775
146	0xbd27a2bc	-0.04092668
147	0xbccac75a	-0.024753261
148	0xbd11a765	-0.03556003
149	0xbd14437f	-0.03619718
150	0xbb89e137	-0.004207756
151	0x3bfc010e	0.0076905554
152	0x3c7fa9e1	0.015604467
153	0xbbfd7299	-0.0077346084
154	0xbd30bae9	-0.043147
155	0xbd0d0100	-0.03442478
156	0xbb065944	-0.0020499984
157	0xb8b2d683	-8.527657e-05
158	0x3c3156fe	0.010823963
159	0xbc67cdd6	-0.014148196
160	0xbcd72967	-0.02626486
161	0xbaa4d11b	-0.0012574525
162	0x3baf4b9e	0.0053495904
163	0xbc090e74	-0.008365262
164	0xbce4bde1	-0.027922573
165	0xbd29a001	-0.041412357
166	0xbcf0c15b	-0.029389074
167	0x3cb4501d	0.022010857
168	0x3cb1303b	0.021629443
169	0xbcc2776a	-0.023738582
170	0xbb8db162	-0.004324124
171	0xbd143084	-0.03617908
172	0xbc018293	-0.0079046665
173	0xbc85e6cc	-0.016345404
174	0x3c493ff7	0.012283317
175	0xbc8e03af	-0.01733574
176	0xbc7cc1ca	-0.015427062
177	0x3c999d09	0.018751638
178	0xbc3b7460	-0.01144132
179	0xbcf41f80	-0.029800177
180	0xbd0cdbf0	-0.034389436
181	0xbcc9b9a6	-0.024624657
182	0x3c5d4a84	0.013506535
183	0xbbf94617	-0.0076072323
184	0xbc4ff800	-0.012693405
185	0xbceb0343	-0.028688079
186	0xbd289012	-0.04115302
187	0xbaca8b89	-0.0015452962
188	0xbd15d5a7	-0.036580708
189	0xbc7c9fc4	-0.0154189505
190	0xbcf2c3e3	-0.029634422
191	0xbb55a078	-0.0032596868
192	0x3c0cbac4	0.00858945
193	0xbc4c6320	-0.012474805
194	0xbc6bbc49	-0.014388152
195	0xbce760f7	-0.028244479
196	0x3b1e6fdd	0.0024175562
197	0xbcbdeb3f	-0.023183463
198	0xbc51912b	-0.012790958
199	0xbd05216d	-0.03250258
200	0x3c242318	0.010018133
201	0xbcdb4035	-0.026764015
202	0xbcd08e3e	-0.025458451
203	0x3bf8faa9	0.0075982404
204	0xbb5c944c	-0.0033657728
205	0x3bc978d0	0.006148435
206	0xbcd4c3e2	-0.02597231
207	0xbc8b5d42	-0.017012242
208	0xb910d6cd	-0.0001381293
209	0xbcb27090	-0.02178219
210	0xbc8b8c58	-0.017034695
211	0xbcae92a2	-0.021310154
212	0xbd06b69b	-0.03288899
213	0x3b1c7e9d	0.0023879178
214	0xbd24e106	-0.04025366
215	0xbc78adc7	-0.0151781505
216	0x3c55298f	0.013010397
217	0xbd3d9539	-0.046284888
218	0x3b1a1d9f	0.002351619
219	0xba5853ed	-0.0008252252
220	0x3cd34078	0.025787577
221	0x3cfb8f63	0.03070802
222	0x3d396d1e	0.045270078
223	0x3d453eeb	0.048155706
224	0x3cead1ce	0.028664496
225	0x3d789348	0.060687333
226	0x3cac81e8	0.021058038
227	0x3cb94ec9	0.022620576
228	0x3cf53db4	0.029936649
229	0x3d7ceeac	0.061751053
230	0x3c064641	0.008195461
231	0x3c0aba7a	0.008467311
232	0x3c8e4730	0.01736793
233	0x3d4c9df4	0.049955323
234	0x3c6d5856	0.014486393
235	0x3c5a46f4	0.013322581
236	0x3d238b80	0.03992796
237	0x3d752ad1	0.059855286
238	0x3d30ece7	0.043194678
239	0x3d85f6ad	0.0654119
240	0x3d6247ad	0.055244137
241	0x3c1773a0	0.009243876
242	0x3d3dbbe8	0.04632178
243	0x3cd5eea6	0.026114773
244	0x3d132bde	0.035930507
245	0x3d4b9824	0.04970564
246	0x3d28fead	0.041258503
247	0x3cf6c608	0.030123726
248	0x3d4f25d9	0.050573204
249	0x3d08e1e9	0.03341857
250	0x3d0f5fc4	0.03500344
251	0x3d439e63	0.04775847
252	0x3d136a1d	0.03598987
253	0x3d6e6dea	0.05821029
254	0x3d60d169	0.05488721
255	0x3c1517f7	0.009099952

fc.0.bias f4 [100]
0	0xbcab82db	-0.02093642
1	0xbc77fd8f	-0.015136137
2	0x3c68db30	0.014212415
3	0x3d515322	0.051104672
4	0x3d0cd18a	0.03437952
5	0xbc4c4d0d	-0.012469542
6	0x3ca4d06a	0.02011891
7	0x3d07a031	0.033111755
8	0xbc20295c	-0.009775486
9	0xbb915de8	-0.0044362433
10	0xbd610cba	-0.054943778
11	0x3b81a518	0.0039564483
12	0x3d413e10	0.047178328
13	0xbb1b5d23	-0.0023706637
14	0xbaf94d09	-0.0019020151
15	0x3d2c8872	0.042122312
16	0x3cc815a8	0.024424389
17	0xbc6c23dc	-0.014412846
18	0x3b03359c	0.0020020967
19	0x3c86144f	0.016367106
20	0x3c8df5a6	0.017329048
21	0x3a183280	0.0005805865
22	0x3bb09f26	0.0053900657
23	0x3be3899d	0.006943895
24	0xbd159fcf	-0.03652936
25	0x3d10980c	0.035301253
26	0x3cc187da	0.02362435
27	0x3abed0fd	0.0014558133
28	0x3c383492	0.0112430025
29	0x3bf9283a	0.0076036723
30	0xbcc608b2	-0.024174068
31	0xbc9c34eb	-0.019068202
32	0x3cec3431	0.02883348
33	0x3c6ddd90	0.014518157
34	0x3c3485c3	0.011018219
35	0x3cca791f	0.024715958
36	0x3c9cd332	0.019143675
37	0xbd05f65c	-0.03270565
38	0xbd44b578	-0.048024625
39	0x3a8a46db	0.0010549681
40	0x3cc878c3	0.024471646
41	0x3c2d198d	0.010565174
42	0x3d0a1545	0.03371169
43	0x3c989931	0.018627735
44	0x3d14926b	0.036272448
45	0xbb561e12	-0.0032671732
46	0x3ca3a25f	0.019974886
47	0x3cc957f0	0.024578065
48	0xbcda28c7	-0.026630772
49	0x3b0f55c0	0.002187118
50	0xbcd28e01	-0.025702478
51	0x3ca9d09c	0.020729356
52	0xbd2c54f6	-0.042073213
53	0x3d1d3304	0.03837873
54	0x3d01783c	0.031608805
55	0xbcadd047	-0.021217478
56	0xbc9bf29a	-0.01903658
57	0x3b32b6ef	0.0027269681
58	0x3c5f669a	0.013635302
59	0xbbcbc2fd	-0.006218313
60	0xbc2429ea	-0.010019759
61	0xbd2ba0f0	-0.04190153
62	0xbca99ad7	-0.020703716
63	0x3d029c02	0.031887062
64	0x3be50b66	0.006989884
65	0x3c529a64	0.012854192
66	0xbce87748	-0.02837719
67	0x3b056269	0.0020352846
68	0xbc1c9940	-0.009558022
69	0x3c91197e	0.017712351
70	0x3c326026	0.010887181
71	0x3c065262	0.0081983525
72	0x3d1bf523	0.038075577
73	0xbb57b28e	-0.0032912823
74	0xbca6396b	-0.02029105
75	0x3b55e512	0.0032637757
76	0xbc794984	-0.015215281
77	0xbc25b3ba	-0.010113651
78	0xbc9023c3	-0.017595178
79	0x3c825808	0.015911117
80	0xbc440979	-0.011965149
81	0xbc3ed17a	-0.011646623
82	0xbae62f0e	-0.0017561631
83	0x38b1743c	8.461668e-05
84	0xb9899aae	-0.00026245922
85	0x3ce05926	0.02738626
86	0x3c95039e	0.018190201
87	0xbc31c560	-0.0108502805
88	0xbc798178	-0.015228622
89	0xbb9f440b	-0.0048604063
90	0x3cf627ae	0.030048218
91	0x3c4d0cf1	0.0125152925
92	0x3c9ea0f2	0.019363854
93	0xba5f3a58	-0.0008515469
94	0x3cdc0302	0.026856903
95	0xbce80b2f	-0.028325645
96	0xbc30eb29	-0.010798254
97	0x3ceb4520	0.028719485
98	0xbcffcc50	-0.031225353
99	0xbc42a07b	-0.011879082

fc.3.weight f4 [32, 100]
0	0x3d2217a0	0.03957331
1	0x3da99085	0.08279518
2	0xbd27b193	-0.040940832
3	0xbd9f57a1	-0.07780386
4	0xbdb24c72	-0.08705987
5	0x3cbd7298	0.023125932
6	0xbca9a44e	-0.02070823
7	0xbc778723	-0.015107903
8	0xbd4004b0	-0.04687947
9	0x3db6c22b	0.08923753
10	0xbdd9ef4c	-0.106413454
11	0xbd9a3c06	-0.0753098
12	0x3dc21c68	0.09478074
13	0xbcc40494	-0.023927964
14	0xbda2e929	-0.07954628
15	0xbdce8e4c	-0.10085735
16	0xbd47528c	-0.048662707
17	0x3c4df776	0.012571206
18	0xbd98f53e	-0.07468651
19	0xbd88baf0	-0.066762805
20	0xbbc8ba47	-0.0061257216
21	0xbd0cc010	-0.034362853
22	0xbd0d2256	-0.034456573
23	0xbcd0cd90	-0.025488645
24	0x3d3a59f0	0.045495927
25	0xbdae38de	-0.0850694
26	0x3d113e09	0.035459552
27	0xbdd9fa8f	-0.106434934
28	0xbd1250dc	-0.035721645
29	0xbd62f319	-0.055407617
30	0x3dc5fa05	0.09666828
31	0xbc3a0718	-0.01135423
32	0x3d60246a	0.054722227
33	0xbdc923b2	-0.098212615
34	0xbd32c57a	-0.04364536
35	0xbdcc1b02	-0.09966089
36	0x3d15a219	0.03653154
37	0xbd005bda	-0.031337596
38	0x3d0591fd	0.03260993
39	0xbd86ce52	-0.06582321
40	0xbdbdb284	-0.09262565
41	0x3c4b2069	0.012397864
42	0xbd08b88d	-0.033379126
43	0xbdbec05b	-0.09314033
44	0x3d5b61f1	0.0535602
45	0xbd0002e8	-0.03125277
46	0x3d1e4130	0.038636386
47	0x3cdc49f0	0.026890725
48	0x3d9b7cab	0.07592138
49	0xbd8d5193	-0.06900325
50	0xbdd5de36	-0.10442774
51	0xbdab1d54	-0.08355203
52	0xbd54af04	-0.05192472
53	0x3d97bde0	0.07409263
54	0x3ce149dc	0.02750104
55	0xbcbec02c	-0.023284994
56	0x3d1751ae	0.03694313
57	0x3ccae656	0.024768036
58	0xbda12d1a	-0.078699306
59	0xbd5373a7	-0.051623967
60	0xbd4855f4	-0.048910096
61	0x3d56c69f	0.052435514
62	0xbd9baf01	-0.07601739
63	0xbd72667b	-0.059179764
64	0x3dba7c42	0.091057315
65	0xbd00498c	-0.03132014
66	0x3cc7f2f8	0.024407849
67	0x3d9a00b3	0.075196646
68	0x3c8f6e8c	0.017508768
69	0xbd8722fe	-0.06598471
70	0x3d9447af	0.07240235
71	0x3d350cc4	0.044201627
72	0x3d6528bb	0.055947047
73	0xbcab54db	-0.020914486
74	0x3c6f2b85	0.014597778
75	0x3d06ee44	0.03294207
76	0xbaf76d40	-0.0018877164
77	0xbb2f3a78	-0.002673773
78	0xbd0c60d0	-0.034272015
79	0x3dc6772a	0.096906975
80	0xbb5d2f00	-0.0033749938
81	0xbdc239cb	-0.094836794
82	0xbd93fc28	-0.07225829
83	0xbdba0bee	-0.09084307
84	0x3d9b0ebf	0.07571172
85	0xbdc8d4c4	-0.09806207
86	0x3d26a098	0.040680498
87	0x3d9f1127	0.077669434
88	0x3db61797	0.08891218
89	0xbda94db1	-0.082667716
90	0xbd8ff5ab	-0.07029279
91	0x3d76442e	0.060123615
92	0xbc9b9414	-0.018991508
93	0x3c25d950	0.010122612
94	0x3da5c7af	0.08094727
95	0x3d868729	0.065687485
96	0x3dbc28f7	0.09187501
97	0xbc36b24a	-0.011150906
98	0x3d68ca9a	0.05683384
99	0xbda1165f	-0.07865595
100	0x3e04c952	0.12967423
101	0xbd739ae3	-0.059473883
102	0x3dd9f874	0.10643092
103	0xbce510b2	-0.027962063
104	0x3dd384d6	0.10328071
105	0x3ca51a10	0.02015403
106	0xbcdd46ff	-0.027011393
107	0x3d83e259	0.06439657
108	0x3ca67b8b	0.020322582
109	0xbd87559e	-0.06608127
110	0xbd037488	-0.032093555
111	0xbcadefd7	-0.021232529
112	0xbd74050e	-0.059575133
113	0x3cbeed8f	0.023306636
114	0xbd0adfd3	-0.03390486
115	0x3da06d1f	0.07833313
116	0x3ce3cc56	0.027807396
117	0xb88178e5	-6.173718e-05
118	0x3d67c120	0.056580663
119	0x3d5ba94e	0.05362826
120	0xbd2ea2b6	-0.042635642
121	0xbd099afc	-0.03359507
122	0x3dbd598f	0.092455976
123	0x3db09e83	0.08623984
124	0x3df40061	0.11914135
125	0x3c402e06	0.011729723
126	0xbd3e01dd	-0.046388496
127	0x3e139ca8	0.14415228
128	0xbd842c38	-0.064537466
129	0xbd502118	-0.05081281
130	0xbdc0bdf0	-0.09411228
131	0x3d13aaf8	0.03605172
132	0x3cd36775	0.025806168
133	0xb6f702c4	-7.3614956e-06
134	0xbd89c6de	-0.06727384
135	0x3d86793c	0.06566092
136	0x3d8a16d1	0.06742633
137	0x3c66396e	0.014051778
138	0xbcccaed8	-0.024985716
139	0x3dac9c48	0.08428246
140	0x3d362f6c	0.04447882
141	0xbc96dfd8	-0.018417284
142	0x3bd6ff41	0.0065611904
143	0x3dcc4339	0.09973759
144	0xbdaaefed	-0.083465435
145	0x3de424b0	0.1113981
146	0x3cc40709	0.023929136
147	0x3dac5a98	0.08415717
148	0xbd2c41e4	-0.042055026
149	0xbd9a3afa	-0.0753078
150	0x3e11fd90	0.14256883
151	0xbb81f316	-0.0039657457
152	0xbd761648	-0.060079843
153	0x3d472518	0.04861936
154	0xbd14e800	-0.036354065
155	0x3d6e5a5f	0.058191653
156	0x3d492fe6	0.049117945
157	0x3da613ed	0.08109269
158	0x3da9acc0	0.082849026
159	0xbc67eebe	-0.014156042
160	0xbd4225a6	-0.047399186
161	0x3dea1105	0.114290275
162	0x3c89a725	0.016803334
163	0x3cf6a323	0.030107087
164	0xbcb7949c	-0.02240973
165	0xba5b05e9	-0.00083550677
166	0x3d1d2f7b	0.03837536
167	0x3d1958b3	0.037438106
168	0xbd3915da	-0.045186855
169	0x3cf481fb	0.029847136
170	0x3d82b66b	0.0638245
171	0x3c729f2c	0.014808457
172	0x3d1266ed	0.03574269
173	0xbd9d2178	-0.07672399
174	0x3c8358bb	0.01603352
175	0x3d663d14	0.056210592
176	0xbd5b5327	-0.053546097
177	0x3d632f85	0.05546524
178	0x3d96daa0	0.07365918
179	0xbce9d7ea	-0.028545339
180	0x3dbfea22	0.09370829
181	0x3cd0bdc1	0.025481107
182	0x3d575def	0.052579816
183	0x3d07f350	0.033191025
184	0x3d4f4f6a	0.050612845
185	0x3c806596	0.01567344
186	0xbdf3b99a	-0.11900635
187	0x3cb566b3	0.022143697
188	0x3dc2c836	0.095108435
189	0x3ca91a80	0.020642519
190	0x3d25d133	0.04048271
191	0xbdd05e54	-0.10174242
192	0x39d0c41f	0.00039818973
193	0xbdc9d157	-0.098543815
194	0x3dc54ffd	0.09634397
195	0x3d83a697	0.06428259
196	0x3cd63a57	0.026150865
197	0x3cc0703d	0.02349102
198	0x3db35832	0.08757056
199	0x3b4573a0	0.0030128732
200	0x3d343b6c	0.04400198
201	0x3d904138	0.070436895
202	0x3ca6b640	0.020350575
203	0xbe0c0036	-0.13671955
204	0xbd5af07b	-0.053451996
205	0x3d52ea21	0.051492814
206	0x3d840887	0.06446939
207	0x3d9ff6c7	0.07810741
208	0xbcabb1f7	-0.020958884
209	0x3db446f1	0.088025935
210	0x3ba51199	0.005037498
211	0xbdb202aa	-0.086919144
212	0xbd80461e	-0.06263374
213	0x3dc4e38c	0.096137136
214	0xbdc82a5a	-0.09773703
215	0x3ca1b41c	0.019739203
216	0x3dccd5fd	0.100017525
217	0x3d5da21a	0.05410967
218	0x3e003620	0.12520647
219	0x3d67aece	0.05656319
220	0x3db0b885	0.08628944
221	0xbdb0be7b	-0.08630081
222	0x3cf84a86	0.030308973
223	0x3c8d50b1	0.01725039
224	0xbd835e1a	-0.06414433
225	0x3d218283	0.039431106
226	0x3cf16b1a	0.029470015
227	0x3da391ee	0.07986818
228	0xbc475e8b	-0.012168537
229	0x3c84124c	0.016122006
230	0xbda69082	-0.081330314
231	0xbd10673a	-0.035254695
232	0x3d3c1cf8	0.045926064
233	0xbd0885ac	-0.033330604
234	0x3dff4c50	0.12465727
235	0xbcf10a02	-0.029423717
236	0xbd9dfd57	-0.07714336
237	0x3cc59350	0.024118096
238	0xbc531cb7	-0.012885264
239	0x3af54714	0.00187132
240	0x3dd5a467	0.10431748
241	0xbd00eafb	-0.031474095
242	0xbc129928	-0.008947648
243	0xbd997300	-0.07492638
244	0xbdbbdf66	-0.09173469
245	0x3cc26c5b	0.023733309
246	0xbbb34b89	-0.005471651
247	0x3d1df2b9	0.038561556
248	0xbdaeffa9	-0.08544857
249	0xbcef7c51	-0.029234083
250	0xbc749c55	-0.014929851
251	0xbd94cf40	-0.07266092
252	0x3dd253cc	0.10269889
253	0xbca54499	-0.020174311
254	0x3d1f1091	0.03883416
255	0x3db93bdb	0.0904462

fc.3.bias f4 [32]
0	0xbc8a0161	-0.01684636
1	0x3d866b8f	0.06563484
2	0xbd25d34f	-0.040484723
3	0xbca4f89f	-0.020138083
4	0xbd26017a	-0.040528752
5	0xbc15971a	-0.009130264
6	0x3d8a77e8	0.067611516
7	0x3d23319a	0.039842226
8	0xbcf7f34b	-0.030267378
9	0xbdb9e38c	-0.09076604
10	0x3dcbab6f	0.09944808
11	0xbcb0d29b	-0.0215848
12	0x3ce34796	0.027744096
13	0x3b6f033f	0.003647044
14	0xbaa8bb35	-0.0012873175
15	0x3dc93c17	0.09825914
16	0xbd88cd8d	-0.06679831
17	0x3d76f858	0.060295433
18	0x3d3b377f	0.045707222
19	0xbdbacd93	-0.091212414
20	0xbd8a0dd3	-0.06740918
21	0x3cd9a28b	0.026566764
22	0x3d8d15aa	0.06888898
23	0x3e0e0be3	0.13871722
24	0xbb7b96eb	-0.0038389515
25	0xbd6ff8de	-0.058586948
26	0xbd5c7715	-0.053824503
27	0xbdf01410	-0.117225766
28	0xbc8ca878	-0.017170176
29	0x3daefdee	0.08544527
30	0xbca869ef	-0.020558326
31	0xbd2dd99b	-0.042443853

fc.5.weight f4 [16, 32]
0	0xbd9e2ee2	-0.07723786
1	0x3da13893	0.07872119
2	0xbde4c881	-0.111710556
3	0xbc942940	-0.018086076
4	0xbde67028	-0.11251861
5	0xbd99a624	-0.07502392
6	0x3e3311f2	0.17487314
7	0xbdaee6a4	-0.08540085
8	0x3db563d1	0.08856929
9	0x3e038d20	0.12846804
10	0x3dcf6598	0.10126799
11	0x3d516e0d	0.051130343
12	0xbe28c0fb	-0.16479866
13	0x3e1f37f3	0.15548687
14	0x3de3ebdd	0.11128972
15	0xbd7cabc4	-0.061687246
16	0xbcec65dc	-0.028857164
17	0xbe3799a0	-0.17929697
18	0xbc0ca5ae	-0.008584423
19	0x3e1120b5	0.14172633
20	0x3dece73d	0.11567543
21	0x3e0600cc	0.13086241
22	0xbd9aec01	-0.075645454
23	0x3a59a78c	0.00083028595
24	0x3d11c7dc	0.03559099
25	0xbbe3442c	-0.006935617
26	0xbd1c0e44	-0.038099542
27	0x3d5a8d23	0.053357255
28	0x3e1d48a5	0.15359743
29	0xbe30f02c	-0.17279118
30	0x3e2238d5	0.15841992
31	0x3e053831	0.13009717
32	0xbe0ba978	-0.13638866
33	0xbd99a44c	-0.0750204
34	0x3e112d4a	0.14177433
35	0xbe295682	-0.16536906
36	0x3dd052b5	0.10172025
37	0x3de808c2	0.113297954
38	0x3cd5fa3b	0.026120296
39	0xbe0caee8	-0.13738596
40	0xbe04c18c	-0.12964457
41	0xbd3aa854	-0.045570686
42	0xbe0e6bae	-0.13908264
43	0xbbd90fb8	-0.0066241883
44	0xbde78533	-0.113047026
45	0xbc7c3bc1	-0.015395106
46	0xbddad57b	-0.106852494
47	0xbe0d244a	-0.13783374
48	0xbc27bec9	-0.010238358
49	0x3df44102	0.11926462
50	0xbd7f6396	-0.062350832
51	0xbca85b84	-0.02055145
52	0x3b6299e1	0.0034576582
53	0x3dde9444	0.10868123
54	0x3e198fe3	0.14996295
55	0xbe1ceb11	-0.15324046
56	0x3e04bd74	0.12962896
57	0xbdb3da4b	-0.087818705
58	0x3e3b6a13	0.18302183
59	0x3e023140	0.127141
60	0xbd937bac	-0.07201323
61	0x3c7f0987	0.015566236
62	0x3c7fcac7	0.015612311
63	0x3c6d6302	0.014488937
64	0x3a84f1f9	0.0010142914
65	0xbce87219	-0.028374719
66	0x3d7a5feb	0.06112663
67	0x3c7150ea	0.014728764
68	0xbcc13141	-0.023583056
69	0xbce528ea	-0.02797361
70	0xbe115ef1	-0.14196374
71	0x3cddab62	0.02705926
72	0xbc099c89	-0.008399137
73	0x3d199fd5	0.037505943
74	0xbd9c4944	-0.07631162
75	0x3c445f26	0.011985576
76	0x3e10ee31	0.14153363
77	0xbe1934c0	-0.14961529
78	0xbe20ea10	-0.15714288
79	0x3db8fdb5	0.09032766
80	0x3dd2803b	0.10278364
81	0x3e583e94	0.21117622
82	0xbdfb77a4	-0.12278679
83	0xbde3927b	-0.11111923
84	0xbe11d2bb	-0.14240544
85	0x3e4aca39	0.19803704
86	0x3e072c8e	0.1320059
87	0x3dd68e64	0.104763776
88	0xbd6b425e	-0.05743634
89	0xbd46eded	-0.048566747
90	0xbd976b0f	-0.07393467
91	0x3d3f10a4	0.04664673
92	0xbcf82395	-0.030290404
93	0x3c1f1bd1	0.009711222
94	0xbd3d9cff	-0.0462923
95	0x3e5bbe96	0.21459422
96	0x3d7edfef	0.06222528
97	0x3dbbbcf0	0.09166896
98	0xbe29784c	-0.16549796
99	0xbe0136f7	-0.12618624
100	0xbe2c9f00	-0.16857529
101	0x3e1c9861	0.15292503
102	0xbdcb22e1	-0.09918762
103	0xbe1ba051	-0.15197875
104	0x3c94c0aa	0.018158276
105	0xbdaf3523	-0.08555057
106	0x3d440770	0.047858655
107	0x3e2a6baf	0.1664264
108	0xbcda873c	-0.026675813
109	0x3d50d1b5	0.050981242
110	0xbbc9b42b	-0.006155511
111	0x3dc2d6cb	0.09513625
112	0xbc6cf178	-0.0144618675
113	0xbe125a78	-0.14292324
114	0x3d93fbe3	0.07225778
115	0x3dc5a572	0.09650697
116	0x3c1d24c0	0.009591281
117	0xbe3f540f	-0.1868441
118	0x3d8a0627	0.06739455
119	0x3e25dfb1	0.16198613
120	0x3e0094c8	0.12556756
121	0xbda53512	-0.08066763
122	0xbc51c4a1	-0.012803228
123	0x3e2050dd	0.15655847
124	0xbdffaa50	-0.124836564
125	0x3cd0712c	0.02544459
126	0x3e254dfe	0.16143033
127	0xbde5fe32	-0.112301245
128	0x3e16fc9d	0.14744802
129	0x3c8ebe5b	0.017424753
130	0x3d3494d9	0.044087265
131	0x3dc467c5	0.09590105
132	0xbd68da0c	-0.05684857
133	0xbdbb9e9d	-0.091611125
134	0x3e130a50	0.14359403
135	0xbe3b1b9b	-0.1827225
136	0x3e15000b	0.14550798
137	0xbd9f49c8	-0.077777445
138	0x3d2909e9	0.041269217
139	0x3d999ed5	0.07500998
140	0xbdeea1b2	-0.11651935
141	0xbdea5966	-0.11442833
142	0xbd8e43d7	-0.06946533
143	0xbd24adec	-0.040204927
144	0x3e1308a0	0.14358759
145	0xbc13a6d1	-0.00901194
146	0xbe08c7f7	-0.1335753
147	0xbdd9871e	-0.10621475
148	0xbb1e6bac	-0.0024173064
149	0xbe0d5525	-0.13802011
150	0x3e1b4c84	0.15165907
151	0x3d60fea4	0.054930344
152	0x3d38f6b0	0.045157135
153	0xbe244de8	-0.16045344
154	0x3e0ebb74	0.13938695
155	0x3ce64f30	0.028113931
156	0xbcb0d85b	-0.021587541
157	0x3d0a3d0c	0.033749625
158	0xbe43627a	-0.19080535
159	0xbc80c7ec	-0.01572033
160	0xbd031106	-0.031998657
161	0x3e4ebfb1	0.20190312
162	0xbd6a541e	-0.057209127
163	0xbe157289	-0.14594473
164	0x3e08594a	0.13315311
165	0x3d245102	0.040116318
166	0x3d98a80c	0.074539274
167	0x3dfa513d	0.12222526
168	0x3d81f8ce	0.06346284
169	0x3d77b3fc	0.06047438
170	0x3e1cb5c6	0.15303716
171	0xbdbe9283	-0.09305289
172	0x3d4687b3	0.048469257
173	0x3d6c9930	0.05776328
174	0x3d6997ad	0.057029415
175	0x3d06375a	0.03276763
176	0x3c4262bb	0.0118643595
177	0xbd6e1413	-0.058124613
178	0x3c95df99	0.018295096
179	0x3e32e4f6	0.17470154
180	0x3db2792f	0.0871452
181	0x3dc3833c	0.09546515
182	0x3e7410f0	0.23834586
183	0x3e1cd6ba	0.15316287
184	0x3d56e2ae	0.052462272
185	0x3e084694	0.13308173
186	0xbe0a8c75	-0.13530143
187	0xbdf862b5	-0.12128202
188	0x3d2a77f4	0.041618302
189	0xbe2179b3	-0.15769081
190	0xbdcb5007	-0.099273734
191	0xbd00992e	-0.031396084
192	0xbd4ad028	-0.04951492
193	0x3ca534d0	0.020166785
194	0x3d789088	0.06068471
195	0x3e37045c	0.17872757
196	0x3e166795	0.14687951
197	0xbc04ef74	-0.008113731
198	0xbd1b8a74	-0.037973836
199	0xbc0085d4	-0.007844407
200	0x3dcdfb90	0.10057747
201	0x3ba15899	0.0049238917
202	0xbd98d3a5	-0.07462243
203	0x3e11caf0	0.14237571
204	0xbe06e605	-0.13173683
205	0xbe37c3ae	-0.1794574
206	0xbdf2865c	-0.11842033
207	0x3e03ae8a	0.1285955
208	0x3d160b1d	0.036631692
209	0xbdbbf3cd	-0.09177361
210	0xbd19d912	-0.03756053
211	0x3dae018b	0.08496388
212	0x3dad4174	0.0845975
213	0xbdec0fd9	-0.1152646
214	0x3dcd4995	0.100238
215	0xbdeab505	-0.11460308
216	0x3e11dc23	0.14244132
217	0xbe0cc250	-0.13746
218	0xbce2c063	-0.027679628
219	0x3d15681f	0.03647625
220	0x3e0ec7b1	0.13943364
221	0x3defe5d6	0.117137596
222	0xbe202335	-0.1563843
223	0xbe2a758b	-0.16646402
224	0x3dfa75ee	0.122295246
225	0x3e097634	0.13423997
226	0x3e06135e	0.13093325
227	0x3daf595b	0.08561965
228	0xbd2d7c8c	-0.042355105
229	0xbc9e4b3e	-0.019322988
230	0xbe0cb8d0	-0.13742375
231	0xbda7404e	-0.08166562
232	0x3df94912	0.1217214
233	0xbe39ead8	-0.18155992
234	0x3db293b9	0.08719582
235	0x3e23f613	0.16011839
236	0x3cac2763	0.021014875
237	0xbe331221	-0.17487384
238	0x3d4fabc8	0.050700933
239	0xbb7fa312	-0.003900711
240	0xbdf20f01	-0.11819268
241	0xbe4621c3	-0.19348817
242	0xbe014994	-0.12625724
243	0xbdac1ede	-0.08404325
244	0x3e0ada39	0.13559808
245	0xbd933132	-0.07187118
246	0x3dd646e4	0.1046274
247	0x3cd9cf65	0.026588151
248	0xbe27f32a	-0.16401353
249	0x3dcc8410	0.099861264
250	0x3d9cabfb	0.0764999
251	0xbd95a1b5	-0.07306234
252	0x3c1de4b0	0.009637043
253	0xbceeddf3	-0.029158568
254	0xbddc2dd9	-0.10750932
255	0xbcfde5ae	-0.030993309

fc.5.bias f4 [16]
0	0xbe07c53d	-0.13258834
1	0xbdba8c60	-0.09108806
2	0x3de8ff20	0.11376786
3	0xbdd85f8d	-0.105651
4	0xbe2dace9	-0.16960491
5	0x3d9c5069	0.076325245
6	0x3d180115	0.037110407
7	0xbe14befd	-0.14525981
8	0xbdae758d	-0.08518515
9	0xbd08dd95	-0.033414442
10	0xbdb39f64	-0.08770636
11	0xbe367bf7	-0.17820726
12	0xbe1b6be3	-0.15177874
13	0xbdafe7a4	-0.08589104
14	0x3de3c1e4	0.11120966
15	0xbc71a347	-0.014748401

fc.7.weight f4 [6, 16]
0	0x3dbd452a	0.092417076
1	0xbe2c6b26	-0.16837749
2	0x3e890587	0.2676203
3	0xbdab5651	-0.08366073
4	0x3d95859c	0.073008746
5	0xbe8c4d9b	-0.27402958
6	0xbe7c26b8	-0.24624145
7	0x3dc4143a	0.095741704
8	0x3e01280d	0.12612934
9	0xbd184f18	-0.037184805
10	0x3d8a4537	0.06751483
11	0x3dfcb38b	0.123389326
12	0xbe8bfc10	-0.27340746
13	0xbe32aa95	-0.17447884
14	0x3e11a99a	0.14224854
15	0x3d9ec2a1	0.07751966
16	0xbe124ef3	-0.14287929
17	0x3e48f0da	0.19623128
18	0x3dc2e63d	0.09516571
19	0x3e3f388b	0.18673913
20	0x3dd7ca91	0.10536683
21	0x3e07484c	0.13211173
22	0xbe38f945	-0.18063839
23	0xbd46ef95	-0.048568327
24	0xbe35d2a3	-0.17756133
25	0x3da1ff42	0.07910015
26	0x3e1f28d7	0.15542923
27	0xbe5a4f49	-0.21319307
28	0x3dbfbac7	0.09361797
29	0xbda0af46	-0.07845931
30	0xbe3a0292	-0.18165043
31	0x3e75f4db	0.24019186
32	0x3e2d38b5	0.16916163
33	0x3c180dec	0.009280663
34	0x3d8cf9dd	0.06883595
35	0xbe0af047	-0.13568221
36	0x3e6c0adf	0.23051022
37	0x3d4f39ba	0.05059216
38	0xbe6918d1	-0.22763373
39	0xbdc7070b	-0.0971814
40	0x3e15614f	0.14587902
41	0x3bf8a99e	0.0075885793
42	0xbdf0cc0e	-0.1175767
43	0x3d75e7eb	0.060035627
44	0xbdff5596	-0.12467496
45	0x3e049bf1	0.12950112
46	0xbe9dbd74	-0.30808604
47	0x3d7077f7	0.058708157
48	0xbe7f129b	-0.24909441
49	0xbc92f37f	-0.017938374
50	0xbce0ef32	-0.027457807
51	0xbde4c89e	-0.11171077
52	0xbe1f9155	-0.15582784
53	0xbe5bef80	-0.21478081
54	0xbdde7177	-0.108614855
55	0xbe10ce77	-0.1414126
56	0x3e0c41e7	0.13697015
57	0x3e0e5668	0.13900149
58	0xbda8a0ab	-0.0823377
59	0x3e126161	0.1429496
60	0x3c093d6f	0.008376463
61	0x3da6ce4d	0.081448175
62	0x3e8228bb	0.254217
63	0xbe515148	-0.20441163
64	0x3e398f4f	0.18121074
65	0x3c634ea4	0.01387373
66	0xbe955fdc	-0.29174697
67	0xbdee3818	-0.11631793
68	0x3da9ffc7	0.08300739
69	0x3e45edb0	0.19328952
70	0xbd412479	-0.047153924
71	0x3e071acb	0.13193814
72	0x3c9f7047	0.019462718
73	0x3b857a4c	0.004073417
74	0xbbe5e9fc	-0.0070164185
75	0xbdd1c6a3	-0.10242965
76	0xbdffead7	-0.12495964
77	0xbcc51fc8	-0.024063006
78	0xbd9b5997	-0.07585447
79	0xbe0700cc	-0.13183898
80	0x3db7668b	0.089551054
81	0xbe628f9a	-0.22125092
82	0xbc21d7d2	-0.009878116
83	0xbe7d8131	-0.24756314
84	0x3e18280a	0.14859024
85	0xbd7c41b6	-0.061586104
86	0xbe087a45	-0.13327892
87	0xbd059f11	-0.0326224
88	0xbd697668	-0.056997687
89	0xbe05ad47	-0.13054381
90	0xbe8bbb3c	-0.27291286
91	0xbe1e1934	-0.15439302
92	0xbe3541cd	-0.17700882
93	0x3d7fd109	0.06245521
94	0x3e61aaa7	0.22037755
95	0xbb51cc9c	-0.0032012826

fc.7.bias f4 [6]
0	0x3e19cdb1	0.15019871
1	0x3e511b90	0.2042067
2	0x3e58836d	0.21143885
3	0xbd9b25f0	-0.075755954
4	0xbe48bb81	-0.19602777
5	0xbcfb34d2	-0.030664835
