puyo-classifier.onnx (onnx, 104565 bytes, 6 tensors)

conv.0.bias f4 [32]
000000 98 0c 06 be eb cc 8e 3d 92 58 a4 bd 44 74 f6 bd
       -0.13090742 0.06972679 -0.08024706 -0.12033895
000010 99 70 02 be f9 f4 ca bd 03 4d dc 3d 40 30 37 3c
       -0.12738265 -0.09910006 0.10756876 0.011180937
000020 33 51 f3 3c 1f dd 0d 3e 87 9e 8d bd 01 81 ef 3d
       0.029701805 0.13853882 -0.06915002 0.116945274
000030 7f dc 6b 3e d3 03 03 3e c5 ef a5 bd c7 10 54 3e
       0.23033331 0.12794428 -0.08102373 0.20709525
000040 b2 dd 9e 3d c3 cb a3 bd 74 99 ab 3d 89 70 b9 bd
       0.07757129 -0.07997849 0.08378878 -0.090546675
000050 1e ac 02 3e b2 f3 14 be 7c 27 29 3d 44 22 0a 3d
       0.1276097 -0.14546087 0.04129742 0.033724084
000060 21 44 23 bd 72 5a a0 bd 5a 8f 1b 3e 17 35 23 be
       -0.039859895 -0.07829751 0.15191403 -0.15938221
000070 d3 1e 94 bd d9 36 0b be 7e db 4b 3e 0c 5d e1 bd
       -0.07232442 -0.13595141 0.19907948 -0.110040754

conv.0.weight f4 [32, 3, 3, 3]
000000 a5 7b dd 3d b8 3a 83 3d 7e c9 88 3e 3a a3 35 3e
       0.10814599 0.06407684 0.26716226 0.17738047
000010 ca 38 6f 3e d6 03 22 3e 93 0c 67 bc d4 90 5e bc
       0.23361507 0.15821776 -0.014102119 -0.013584334
000020 83 4c 29 bd 43 04 3d bd 5d 91 df bb a2 20 45 3e
       -0.041332733 -0.046146642 -0.0068227486 0.1925073
000030 a1 a5 02 bd f1 55 ca 3b 0f 14 49 3d ff e0 59 be
       -0.031896237 0.006174796 0.049091395 -0.21277235
000040 7a c2 b5 3d 73 6d 4f be db 65 be bc 96 bd dc bc
       0.08874984 -0.20256595 -0.023241928 -0.02694587
000050 bb 1d 74 3d a4 7f 66 be b6 cd 51 be 1f ba 81 3d
       0.059598666 -0.22509629 -0.20488629 0.06334328
000060 eb fe 6c be b9 f2 6c be b6 ed 09 3d c5 bd 64 3e
       -0.23144118 -0.23139466 0.033673964 0.22338016
000070 2b c7 0f 3d 96 1b 01 be 9f 66 63 3e 8c 85 03 3e
       0.03510205 -0.1260818 0.22207116 0.12843913
000080 78 23 9d 3d 1f 02 11 3d 46 71 2a 3e f6 50 1d 3e
       0.07672781 0.035402413 0.16644773 0.15362915
000090 69 33 b0 3d 1e c7 2c be 00 32 03 be 95 20 a9 3d
       0.08603556 -0.16872832 -0.12812042 0.08258168
0000a0 03 26 4f bd c9 bb 30 be 2d 41 23 bc fb e3 6f 3d
       -0.05057336 -0.17259134 -0.00996427 0.05856703
0000b0 04 86 1f 3d 56 03 56 bd fa 7a 10 be 35 a6 5e 3d
       0.038946167 -0.052249275 -0.14109412 0.054357726
0000c0 49 98 78 3d 5d fc c5 bd 36 f9 12 3d 87 f7 50 be
       0.060692105 -0.09667275 0.035882197 -0.20406924
0000d0 da e5 1b 3c 27 84 a3 3d fa bc 74 be 0a 58 62 be
       0.00951525 0.079841904 -0.23900214 -0.22103897
0000e0 bd 03 0b bd 8b 70 47 be 7a 80 89 be 82 5f 63 be
       -0.033939112 -0.19476525 -0.26855832 -0.22204402
0000f0 9c 0f db bc cc c3 ef 3d 99 11 8b 3d 09 10 d0 3a
       -0.026740842 0.11707267 0.06790466 0.001587392
000100 a1 6f c1 bb 95 2e e6 bd f1 a2 49 3c b0 1a 08 be
       -0.0059032 -0.112393536 0.012306915 -0.1329143
000110 d4 b7 39 be 41 4f 65 3d 42 58 cd 3d 8d f2 58 3d
       -0.18136531 0.055983786 0.100265995 0.05296569
000120 c6 23 2c be 0d 6e 2e be 7a 7d 60 bd 49 bb 42 3c
       -0.16810521 -0.17034169 -0.054807164 0.011885473
000130 e4 12 51 be 49 44 f8 bc 94 9c 43 be 69 73 71 bd
       -0.20417362 -0.030305998 -0.19102699 -0.058947954
000140 00 10 6b 3d 4f 56 c9 3d 36 b2 03 3e d0 b7 02 be
       0.057388306 0.09830915 0.12860951 -0.12765431
000150 ca 17 8a 3e 5f 60 e2 bd 34 a2 51 be fa d7 32 3e
       0.26971275 -0.110535376 -0.20472032 0.17465201
000160 1b 8a 2b be 77 12 dd 3d f4 3d 1e bc 83 54 85 be
       -0.16751902 0.107945375 -0.009658325 -0.2604104
000170 f5 7e 4a be f1 13 28 bd 71 24 a2 3d fe e3 56 be
       -0.19774993 -0.041034643 0.07917107 -0.2098541
000180 a8 62 1b bc 89 a9 c0 bd 5f db 0c be 99 90 5b 3e
       -0.009483971 -0.09407336 -0.13755558 0.21441878
000190 30 21 17 3d 3c 37 2f be 06 60 54 3e b0 3c 5d 3d
       0.036896884 -0.17110914 0.20739755 0.054012954
0001a0 52 76 3c 3e fb 46 11 3e be d2 3c bd b7 a6 86 3d
       0.1840451 0.14187233 -0.046099417 0.06574767
0001b0 7b 65 9c bb 88 cf ca bd 6c e6 1b be 22 d4 9b 3d
       -0.0047728396 -0.09902865 -0.15224618 0.076088205
0001c0 f1 67 b5 bd 24 0c 3d be 29 4d 36 bd 2c 81 14 be
       -0.08857716 -0.18461663 -0.04450718 -0.145024
0001d0 82 83 b8 3d 2f 52 d5 bb 61 d2 3b be 59 26 14 3e
       0.09009458 -0.006510041 -0.18341972 0.14467753
0001e0 79 1e e1 bd 3f f4 28 3d 45 64 07 be 6c cc ce bd
       -0.1099214 0.041248556 -0.13221844 -0.10097584
0001f0 64 69 88 3b 1b 46 a2 3d 9d 05 26 3e c9 1d 09 3e
       0.004162954 0.07923528 0.16213079 0.13390268
000200 ad a8 01 3e b7 aa 2b be bc ca c8 3d dd 96 09 be
       0.12662001 -0.16764341 0.098042935 -0.13436456
000210 f4 da 15 bd e0 87 c6 bd 18 ae 1f 3e 2f 81 2c 3e
       -0.036585763 -0.09693885 0.15593755 0.16846155
000220 9d 7f 15 3d e0 b6 9c 3d 7f 74 21 be 32 45 d9 bd
       0.036498655 0.07652068 -0.15767096 -0.10608901
000230 fd 9b 45 3e 29 0e 45 be 27 ed 05 3e 22 e5 24 3e
       0.19297786 -0.19243683 0.13078748 0.16103032
000240 81 3c e7 bd e8 86 b3 bd fd fe 45 be 93 a2 99 bd
       -0.11290837 -0.08765966 -0.19335552 -0.07501712
000250 d5 4b 06 be 48 39 59 3d 40 5e 4d be 05 87 a8 3d
       -0.13114865 0.053033143 -0.20055485 0.08228878
000260 b2 77 ab bd f8 0d 55 be d4 51 07 be 78 df 51 be
       -0.083724394 -0.2080611 -0.13214809 -0.20495403
000270 73 77 d4 3c ab 04 04 3d 7a 8b a0 3d 97 a1 e3 bb
       0.025935864 0.032231014 0.07839103 -0.0069467532
000280 fc f8 3a bd a9 b1 35 3b f4 c4 fd 3c ef 20 ea 3c
       -0.045647606 0.0027724302 0.030977704 0.028580157
000290 bb b9 4e 3e 34 29 e9 3d f6 3b cf bd 40 19 e8 3d
       0.20188038 0.11384812 -0.101188585 0.11332941
0002a0 e7 97 26 3e bd bf a0 bd 43 00 36 3e a5 6a 3d be
       0.16268884 -0.07849071 0.17773537 -0.18497713
0002b0 6e 6c c4 3d 6f 13 a2 3d fd 58 94 bd 88 72 3b 3e
       0.09590994 0.07913863 -0.07243536 0.18305409
0002c0 f0 e9 11 bd a0 b9 1c 3d 0c af d2 bc 23 0e 5a bd
       -0.03562349 0.038262963 -0.025718234 -0.053236138
0002d0 e7 ff e5 3d 99 08 78 3d f7 09 47 3e c5 f7 d0 bd
       0.1123045 0.060555074 0.19437395 -0.10203508
0002e0 66 35 48 be 72 60 7e bd 3f 38 bb bd d0 5c 32 be
       -0.1955162 -0.062103696 -0.091415875 -0.17418218
0002f0 5b 9f bd bd e8 31 29 3e cd bc bf bd 13 08 b1 3d
       -0.0925891 0.16522944 -0.09362183 0.08644118
000300 59 96 33 3e 42 d4 c0 bc 89 1e 23 3c de d9 9a bc
       0.17537822 -0.023538712 0.009956011 -0.018902715
000310 19 e6 50 3e 4a 50 48 3e b1 b6 25 3e e9 b5 a2 3c
       0.20400275 0.19561878 0.16182972 0.019862132
000320 aa 79 1a be 43 85 29 3e 77 50 0d 3e 33 b4 28 be
       -0.15085474 0.16554742 0.13800226 -0.1647499
000330 ef 79 2e bd 06 dd 13 3e eb 50 01 bd 87 6e e4 3d
       -0.042596754 0.14439783 -0.03157131 0.11153894
000340 ab 4d e1 3d d2 93 0c 3e 70 39 05 3e 73 ea 96 bd
       0.11001142 0.13728264 0.13010192 -0.073689364
000350 b4 b6 14 3e 5a c1 45 3e d1 4a 4c 3e bf ca a5 3d
       0.1452282 0.19312039 0.19950415 0.080953114
000360 5f 11 6e bd f8 55 9e 3d 88 ce 82 bd b2 e6 50 be
       -0.058122035 0.07731241 -0.06387049 -0.20400503
000370 82 f8 99 bd 74 23 3e be c0 78 51 3e bd 73 bc 3d
       -0.07518102 -0.18568212 0.20456219 0.09201763
000380 eb 13 2b bd 2c 28 81 3c e3 70 f0 3d d7 2a c4 bd
       -0.041767042 0.015766226 0.117402814 -0.095784836
000390 d3 6d 47 bc fb ef 55 bd 97 72 14 be 40 9c d6 bd
       -0.01217218 -0.052230816 -0.14496838 -0.10479021
0003a0 04 bd 30 3e 01 55 e2 bd 32 71 cb bd 69 0b a8 bd
       0.17259604 -0.110513695 -0.099337 -0.08205301
0003b0 0b ad d4 bd e7 90 86 bd 55 6e 5f be 4d de 1c bd
       -0.10384568 -0.06570607 -0.21819432 -0.03829794
0003c0 05 06 99 3d 0c fb 52 be 43 cc 53 be 88 19 07 3e
       0.07471851 -0.2060358 -0.20683388 0.13193333
0003d0 68 74 71 3d 35 28 ba bd 2b c3 34 3e 1e 2d 82 3d
       0.058948904 -0.090897 0.17652576 0.06356262
0003e0 42 53 b1 bd 08 73 41 be f5 ac 12 3e e9 cc 19 be
       -0.08658458 -0.18891537 0.1432379 -0.15019573
0003f0 14 c4 fd bd 2d 3f 19 bd ce 92 31 be 40 37 31 3e
       -0.123909146 -0.037413765 -0.17341158 0.17306232

conv.2.bias f4 [16]
000000 ac 3e ca bc da bd 76 3d b7 4e 8d 3d 2e f1 7f 3b
       -0.024688087 0.06023965 0.06899779 0.0039053666
000010 18 4c 21 bd 87 6b b5 3c 0a de 84 3d 4c 1c 33 3d
       -0.03937921 0.022146 0.06487663 0.043728158
000020 6f 27 6a bd 1c 74 25 bd ea ff df bc 90 4b 16 bc
       -0.057166513 -0.040393934 -0.027343709 -0.009173289
000030 45 6f 30 3d 4e cb bf 3c 19 8a 4d 3d a3 a9 cf 3c
       0.043074865 0.023412373 0.05018053 0.025349444

conv.2.weight f4 [16, 32, 3, 3]
000000 d2 b0 d2 3b 49 f2 41 3d e8 e7 95 bd 85 45 99 bd
       0.00642977 0.0473502 -0.07319623 -0.07483963
000010 dd 2b d4 bd ba b2 8e bc 98 2c 97 ba 3c 4e c0 bd
       -0.10359929 -0.017419208 -0.0011533676 -0.09389922
000020 89 c1 e7 bd 3a 28 d7 bd 92 a5 84 bd b0 d3 53 bd
       -0.11316211 -0.105057195 -0.064768925 -0.051715553
000030 b7 9e 35 bd f0 34 f9 bc f5 12 55 bd b6 9d a3 3c
       -0.044340815 -0.03042075 -0.052020032 0.019972663
000040 a7 27 e9 bc 43 ef b1 bd 53 66 9d bc 3a 6d c7 3b
       -0.02846129 -0.08688214 -0.019213831 0.006086019
000050 d5 c5 e4 3b f6 65 5c 3d 2b 25 14 3b a9 e6 ae 3d
       0.006981591 0.053808175 0.0022605162 0.08540089
000060 7d 61 aa 3c 5f ad bc 3d e9 7c 93 3d 76 9a 86 3d
       0.02079844 0.092127554 0.07201559 0.0657243
000070 cf 1d 46 3d ac 4d 59 3d 3b 28 12 bd 34 84 fe bc
       0.04836827 0.05305259 -0.035682898 -0.031068899
000080 17 e9 75 bd db 41 4e 3d 92 a4 2b bc 2d 3f 1d 3c
       -0.060036745 0.050355773 -0.010476248 0.009597582
000090 c9 8a 3a bc 82 6c b3 3c 59 8c 31 bd fc 02 ce 3b
       -0.011385628 0.021902326 -0.043346737 0.006286977
0000a0 92 e3 3e 3d bf 61 84 bd 2b 5f 1e 3d ab 2f 69 3d
       0.046603747 -0.06463956 0.038664978 0.056930225
0000b0 a9 e5 0f 3d 87 01 cf bd 83 d3 54 bd 57 a7 86 bd
       0.03513113 -0.10107713 -0.051959526 -0.06574886
0000c0 fd d6 6e 3c 3f c6 81 bd be 74 ad bc 64 47 9d bc
       0.014577624 -0.063366406 -0.021173831 -0.01919908
0000d0 c5 84 56 bd 26 36 4a bd 39 45 20 bc 76 d3 9f bc
       -0.052372713 -0.049368046 -0.009782129 -0.019510012
0000e0 64 0c ff 3b a6 3b d0 ba 2c c4 87 bd e6 38 5b bd
       0.0077834595 -0.0015886917 -0.06629214 -0.05352106
0000f0 20 85 b5 3c a1 e0 90 bd 81 93 8c bd 4a dd 77 3d
       0.022158206 -0.070740946 -0.06864072 0.060513772
000100 d5 e1 dd 3c 23 ce 84 bc 87 6f 83 3d ae ba c7 bc
       0.027085224 -0.016211575 0.064177565 -0.024381008
000110 54 0c 5b bc 40 3f bf bb a1 af 2e bd 65 d6 fa bb
       -0.0133696385 -0.0058363974 -0.04264796 -0.0076549524
000120 63 38 a4 bc 0d 97 4f bb 03 f5 c0 3c 43 42 69 3d
       -0.020046419 -0.0031675727 0.02355433 0.056947958
000130 cf 2d 23 3d 06 b3 01 3c 58 5e 98 3d 39 ed a7 3d
       0.03983861 0.007916218 0.0743987 0.081995435
000140 7a ea ca 3c fd b4 49 bd 04 74 b1 3b 4d 11 67 bd
       0.02477001 -0.04924487 0.0054154415 -0.056412984
000150 ab cc df ba 03 15 dc bc 79 85 84 bd 80 6b 60 bc
       -0.0017074546 -0.026865488 -0.064707704 -0.013697505
000160 1b 02 23 3c 12 0b 53 bc af c1 fd bc 69 46 bc 3b
       0.009949232 -0.012881057 -0.030976145 0.005745698
000170 cd 15 a9 3c 64 7d 84 bd b0 c7 a7 bd 9c 00 a3 bd
       0.020640278 -0.06469229 -0.08192384 -0.079591006
000180 0f 10 a0 bc bc f0 ab 3b 60 b1 3b bd 4d 34 76 bd
       -0.019538907 0.0052472036 -0.045823455 -0.06010847
000190 4b df c3 bc 5b 68 e5 3c 96 a7 ea bc 04 c1 f2 bc
       -0.023910185 0.028003862 -0.028644364 -0.029633053
0001a0 66 84 26 3c f7 b8 3c 3d 9f 0f a1 bc 1e 3c ad bb
       0.010163402 0.046074834 -0.019660769 -0.0052867075
0001b0 0d f6 8b 3d a1 ab c4 3d 43 7f 8a bb 0f 93 cf bc
       0.0683404 0.09603048 -0.0042265966 -0.025338678
0001c0 46 75 87 bc 6a b8 8c bc db f0 ca bc 83 d8 84 bc
       -0.016535413 -0.01717778 -0.024773052 -0.016216522
0001d0 a7 55 4a bd ac 7a dd 3c 2a 87 86 bc c8 b8 e8 bc
       -0.04939809 0.027036034 -0.016421873 -0.028408423
0001e0 1a d6 9b 3c f7 dd 01 bd e2 55 32 bd 0b 00 0f bd
       0.01902299 -0.031705823 -0.043538935 -0.03491215
0001f0 04 6f 8d 3c bb 6c 45 bd 7b df 3c 3d 5a 8f a2 3d
       0.01726485 -0.048199397 0.046111565 0.079374984
000200 dd b2 51 3d 48 22 52 3d 4f 3e 92 3d 4e 7e b8 3d
       0.051195968 0.051302224 0.07140791 0.09008466
000210 2f 89 d3 3c 9e 46 b9 3d 22 f3 28 bc e4 ec 25 bd
       0.02582225 0.09046672 -0.010311874 -0.04050912
000220 af 35 92 bb 12 d0 0d bd f8 7c 0f bd ec ef 35 3d
       -0.004461966 -0.03462226 -0.03503129 0.04441826
000230 5a ed d5 ba 83 a5 a5 3b c8 c2 a9 3c e2 e2 74 3a
       -0.0016321347 0.005055131 0.020722762 0.00093416695
000240 7d 2f 30 3d c5 e7 8f 3c 08 64 39 3d 17 8b 08 3b
       0.04301404 0.017566571 0.045261413 0.0020834857
000250 e9 72 c9 3d 2a 9c 45 3c 59 5b 28 3d 5b fd 99 bc
       0.098363705 0.012061158 0.04110274 -0.018797567
000260 5a be a4 3d dd 44 c2 3c 17 8d fc bb eb e2 9f bd
       0.08044119 0.023714477 -0.007707249 -0.07806953
000270 51 79 d3 3b 1e c7 3d 3c 4f e8 50 3c 12 5d 93 3c
       0.006453671 0.011583118 0.012750699 0.017988715
000280 47 60 89 bc 26 e5 31 bb f3 96 6e 3d ab ef 42 3d
       -0.016769541 -0.002714464 0.058249425 0.047591846
000290 58 34 54 3d ec 8d 94 3b 6e 8b 89 3d e5 31 b6 3d
       0.05180773 0.00453352 0.06716047 0.088962354
0002a0 87 b6 b5 bc 9c 1a bf 3c 89 9d c8 bb bb 28 64 3d
       -0.022181762 0.023328118 -0.0061222953 0.055702906
0002b0 35 fd 28 bc a9 91 fa bc a6 7b a5 bc ca 70 29 3b
       -0.0103142755 -0.030587034 -0.020200562 0.002585458
0002c0 66 1b 48 bd 8e c1 80 bd ef 8d 7d bd 27 df 86 3c
       -0.048854254 -0.062869176 -0.061902937 0.01646383
0002d0 65 7c 17 bd 4c 43 0f bd f4 40 40 bd 67 4b e9 3c
       -0.036983866 -0.03497629 -0.046936944 0.028478337
0002e0 7d 99 89 3c ed 6d 1f bd 78 69 97 bd 74 bf 4b bd
       0.016796822 -0.038923193 -0.073931634 -0.04974313
0002f0 4d bd 13 3d 02 3c 76 3c 56 72 34 3d 31 0e 75 bc
       0.036069203 0.015028955 0.04405435 -0.014956997
000300 67 37 ba bb db fc bf 3c 40 27 64 3d c5 5f 30 3d
       -0.005682874 0.023436 0.055701494 0.043060083
000310 6d 5e 2f 3d 05 09 fc bc 27 a0 2f 3d c4 4c a5 3d
       0.04281466 -0.03076602 0.042877343 0.080712825
000320 da 7c ad 3d f6 86 0a 3c 92 fe 91 3d 52 2a 86 3d
       0.08471079 0.008455029 0.071286336 0.06551041
000330 f5 d1 97 3b 14 f8 82 bb c0 eb cb 3c 7b 79 15 3d
       0.004633183 -0.0039968584 0.024892688 0.036492806
000340 7a 3d 09 3d bf a4 36 3a 22 c4 5a 3a 2d 60 63 bd
       0.033505894 0.0006967298 0.0008345266 -0.055511642
000350 73 9f e0 bc df f3 51 bd 63 08 3e bd d5 a7 30 bd
       -0.027419781 -0.051257964 -0.046394717 -0.043128807
000360 b3 56 36 bd 7a 19 dd bd f5 ad ea bc 2e 7e cc bd
       -0.044516277 -0.10795875 -0.028647402 -0.09985004
000370 cf 4a 0b bd df f0 87 bd 3f 14 e9 bd fb bc 77 bd
       -0.03400689 -0.066377394 -0.11380815 -0.06048296
000380 a0 e4 f2 39 c7 38 3f 3c da 99 c6 bc d0 fa 3f bc
       0.00046328176 0.011671252 -0.024243284 -0.011717513
000390 c4 b5 06 3b 84 91 c9 3c 3c a0 aa 3c 02 07 92 3d
       0.0020555118 0.02460552 0.020828359 0.07130243
0003a0 6e f7 8b 3d 96 cf 58 3d e0 5c 32 3d 8c a8 63 bc
       0.06834303 0.052932344 0.043545604 -0.013895165
0003b0 29 74 13 bd 19 e7 7e bd 05 76 4c bc f7 71 ae bd
       -0.03599945 -0.06223211 -0.01247931 -0.08517831
0003c0 05 8c 22 3c 0b b5 90 bd b0 00 21 3b 70 d3 d0 3d
       0.009921079 -0.07065781 0.002456706 0.101965785
0003d0 0f 77 8c 3d 7f be 55 bb d2 9b e1 3c 39 89 f2 3b
       0.06858646 -0.0032614765 0.027540121 0.007401612
0003e0 80 5e 09 bd 4d 4f 46 3d fa 92 22 3c f9 75 46 bb
       -0.033537388 0.04841547 0.009922737 -0.003028272
0003f0 6f ca 22 bd f3 55 be bc 18 11 54 bd 7f 74 5c bd
       -0.039743837 -0.023234343 -0.051774114 -0.053822037

fc.0.bias f4 [7]
000000 10 61 36 bc 08 43 0f 3c b1 f6 7f bc 92 b1 ce bb
       -0.01113154 0.008744009 -0.015622781 -0.006307789
000010 3f ef d2 3b 98 96 84 3c 8c dc a2 3c
       0.0064372118 0.01618509 0.019880556

fc.0.weight f4 [7, 2912]
000000 35 5d 7c bc a3 90 27 bd bf a3 0c bd c3 77 a1 bc
       -0.015403082 -0.04090942 -0.034335848 -0.019710427
000010 bd bd ab bc 17 61 21 3c d9 45 0d 3d a1 10 b9 3c
       -0.020964498 0.009849808 0.03449044 0.022590937
000020 8b 4c 01 bd c5 01 e2 bc fe 88 87 bc 5c 41 e3 bb
       -0.031567138 -0.027588734 -0.016544815 -0.0069352817
000030 a0 76 08 bd d0 06 2e bb 78 c0 c0 bc 88 da 3c bd
       -0.033316255 -0.0026554354 -0.023529276 -0.046106845
000040 96 85 e6 bc 8e 18 80 bd 4c 03 34 bd 67 87 bd bc
       -0.02813987 -0.062546834 -0.043948457 -0.023135854
000050 31 da 79 bc a2 88 3b 39 20 58 01 bd c9 f9 58 bd
       -0.015249775 0.0001788461 -0.031578183 -0.05297259
000060 d7 52 43 bd 90 3d bc bc 96 79 4c bd f9 3e da bc
       -0.047686424 -0.022978574 -0.04992064 -0.026641356
000070 2f 0b 1d 3c b9 5c ab bc d8 ee 0d bd 5b c3 8b bd
       0.009585186 -0.020918237 -0.034651607 -0.068243705
000080 40 57 87 bd a5 ef 41 bd 1f cb 5c bd aa b6 13 bd
       -0.066084385 -0.047347683 -0.05390465 -0.036062874
000090 dc 1d 0f bd 84 5b 37 bd 71 1b 2e bd 26 f0 5f bc
       -0.034940585 -0.04476501 -0.04250664 -0.013668096
0000a0 e0 bb e0 bb 2c ed 41 3d b1 3e 02 3d 43 fb 26 3b
       -0.006858334 0.047345325 0.03179807 0.0025479353
0000b0 0e f1 12 bd 68 4e 93 bd 10 4f 64 bd c0 4d bd bc
       -0.03587442 -0.07192689 -0.055739462 -0.023108363
0000c0 53 72 9d bd bd 0d 85 bd c4 15 03 bd 2d 56 6a bd
       -0.07687821 -0.06496761 -0.03200318 -0.05721109
0000d0 ff a4 76 bd 28 e9 37 bc ad 9d b0 bb 25 ff 41 3d
       -0.060215946 -0.011225022 -0.00538989 0.047362465
0000e0 05 97 a3 3d 43 f8 35 3d 6d 5d a1 bc 74 f0 32 bd
       0.07987789 0.044426214 -0.01969787 -0.043686345
0000f0 73 cf 64 bd 77 2d 1e bd bc fc 5b bd 54 e1 75 bd
       -0.0558619 -0.038617577 -0.053707823 -0.060029343
000100 d1 37 5e bd ae 51 f3 bc d3 55 64 bd cc 4b 4c 3b
       -0.05425245 -0.029702034 -0.05574591 0.0031173108
000110 28 48 4e 3d b4 7c b4 3d 81 e3 ca 3d 56 0e b4 3d
       0.050361782 0.08812848 0.09906674 0.08791797
000120 e6 3d e0 3c e3 8e c8 bc e2 b8 35 bd c5 db 84 bc
       0.027373265 -0.024482196 -0.04436577 -0.016218076
000130 a0 37 07 bd 80 1d eb bc 8e cc 1d bd e3 89 98 bc
       -0.033012033 -0.02870059 -0.038525157 -0.018620437
000140 a8 0e a2 3c af 55 54 3d 85 fc ad 3d 9c c2 d2 3d
       0.01978238 0.051839527 0.0849543 0.10291025
000150 b7 3a de 3d 95 0e 90 3c 8a 5d 68 bc 72 10 b0 bb
       0.10851043 0.017585078 -0.014182458 -0.005373054
000160 4a 51 1e bc 74 44 3e bd 25 7e f7 bc c9 e2 2a bd
       -0.0096629355 -0.046452 -0.030211518 -0.041720185
000170 5a 2b 10 bc dc a4 1d bd 61 b2 ed bc e4 90 b3 3c
       -0.008799398 -0.0384873 -0.029015722 0.021919675
000180 ad 67 17 3d 0f 23 66 3d 66 d4 a1 3d 66 5f cd 3a
       0.036964107 0.05618578 0.0790184 0.001566869
000190 87 23 04 bd 2f 4c da bc 60 cc fa bb 0c 8a 15 bc
       -0.032260444 -0.026647655 -0.007653758 -0.009127151
0001a0 a0 e1 ac bc 95 04 16 bc 96 d3 cd bc 72 7b b7 bc
       -0.02110368 -0.009156366 -0.025125306 -0.02239773
0001b0 4f 0d 83 bc 96 fb ef bc a2 84 e5 3c 0e 49 43 3d
       -0.015997557 -0.02929477 0.028017346 0.047677092
0001c0 cb b4 22 3d e6 e9 d8 bc 8f d0 e3 bc d4 29 ec bc
       0.0397232 -0.026478719 -0.02780941 -0.028828539
0001d0 86 77 d3 bb 9f 02 c4 bc 34 5b 57 bd 05 eb 84 bd
       -0.0064534573 -0.023927031 -0.052577212 -0.06490139
0001e0 96 7f 31 bd c6 1c 8e bc b2 64 e8 bc 9b fb de bc
       -0.043334566 -0.017347705 -0.028368328 -0.027219584
0001f0 a3 f5 91 bc be b2 85 ba b2 22 7c 3c 94 36 c8 bc
       -0.017817324 -0.0010200364 0.015389131 -0.024440087
000200 ba 7c 4e bd bb 4c 3f bd 54 f4 85 bd a9 6b 9b bd
       -0.050411917 -0.046704035 -0.065407425 -0.07588894
000210 8f 08 87 bd 30 1c bf bd 32 d4 7e bd dd 8f 52 bd
       -0.06593429 -0.09331548 -0.062214084 -0.05140673
000220 37 ed 73 bd cd 63 6d bd ec af fa bc bd b6 a0 39
       -0.059552398 -0.057956506 -0.030601464 0.0003065373
000230 30 f4 f5 3c 3c 42 4f 3b d2 cf b8 3b 9a 90 3a bd
       0.030023664 0.0031625172 0.0056400085 -0.04554806
000240 00 b6 20 bd 2d 10 38 bd 5d 2c 0e bd af 13 4f bd
       -0.03923607 -0.0449373 -0.034710277 -0.05055588
000250 18 80 8b bd f6 97 2a bd 51 af 94 bc c7 a6 69 bb
       -0.06811541 -0.041648827 -0.018150004 -0.0035652386
000260 6c de a0 bb 74 82 3b 3c 67 34 b6 bc 24 03 c4 bc
       -0.0049093273 0.011444677 -0.022241784 -0.023927279
000270 d0 bd 06 bc 91 81 c2 bc 8e 20 25 bd 63 0c 14 ba
       -0.008223966 -0.023743423 -0.04031425 -0.0005647598
000280 41 4e c9 bc 14 87 30 bc 6e 69 c4 bc a1 7f f3 bc
       -0.024573447 -0.010774393 -0.023976054 -0.029723944
000290 93 ae 29 bd 42 3b 16 bd 98 f5 41 bd 92 bf 0c bc
       -0.041426253 -0.036677606 -0.047353357 -0.008590596
0002a0 72 f0 e5 bc e1 86 53 bd 80 20 07 bc 74 5b bb bc
       -0.028068755 -0.051642302 -0.008247495 -0.022870757
0002b0 a9 17 cc 3c 9e 0f 4a 3c 27 6f 12 bc 27 cb 36 3c
       0.024913626 0.012332825 -0.008937634 0.011156834
0002c0 4c b6 8c 3c 31 45 20 bc 10 63 37 bc a2 cc a5 bc
       0.01717677 -0.0097821215 -0.011193052 -0.020239178
0002d0 d7 9d 73 bd e7 dd 38 bd 4d 34 aa bc e4 b4 b0 bc
       -0.0594767 -0.045133498 -0.020776892 -0.02157063
0002e0 a4 62 1f bc 81 90 1a bc 0f 11 c9 3b bf d9 13 ba
       -0.009728108 -0.0094338665 0.0061360667 -0.00056400517
0002f0 d1 6d 10 bd 3e 19 d4 bb 63 29 bf bc df 7f b0 3c
       -0.03526098 -0.0064727357 -0.023335164 0.021545349
000300 18 77 8c 3c 05 a8 9f bb 1a f0 d6 bb ef 42 87 bc
       0.017146632 -0.0048723244 -0.006559384 -0.016511409
000310 df 4a a8 3b e2 69 ea bc ff 29 30 3c d9 13 9b 3c
       0.0051358785 -0.028614942 0.0107522 0.018930363
000320 14 20 bb 3c cd b9 02 bc 45 3f 31 bb fb d6 00 bd
       0.022842444 -0.007978869 -0.0027045768 -0.03145502
000330 97 d9 1c 3c cf 16 d7 3b 6a 7f 31 3b 2a 7a 38 3c
       0.009573362 0.0065639983 0.0027084001 0.011259595
000340 24 b3 68 3c 44 45 22 bb 3a 92 c0 3a db 03 0a bb
       0.014202867 -0.0024760524 0.0014692016 -0.0021059427
000350 d2 0c f4 ba a1 76 a7 bb 15 64 10 bc c3 3f dd bc
       -0.0018619543 -0.005110577 -0.008812924 -0.027007943
000360 7b e6 71 bc 55 bf 17 bd 6c 09 cd bc 50 c1 37 3c
       -0.0147644235 -0.037047703 -0.025028907 0.011215523
000370 be 2c 85 3c df 87 bc 39 58 fe d2 3b f8 bf de bc
       0.016256686 0.00035959386 0.0064390115 -0.027191147
000380 de 00 87 bc 29 37 23 3c f5 97 8d 3c 29 e5 76 3c
       -0.016479906 0.009961882 0.017284373 0.0150692845
000390 12 c1 18 bd a2 b9 2e bd d2 69 3b bd 94 7c 0f bd
       -0.0372935 -0.042657502 -0.045755215 -0.035030916
0003a0 fc 75 a6 ba 5c a2 a7 3c be 9c f5 3c 93 88 79 3b
       -0.0012699957 0.020463161 0.029981967 0.003807579
0003b0 d1 43 82 bc b5 c7 4d bc 38 ff 88 bc 89 66 7b bc
       -0.015901478 -0.012559821 -0.01672326 -0.0153442705
0003c0 52 5a 4a bb a7 b1 9d bc 64 06 35 bd 02 e5 92 bd
       -0.003087659 -0.01924975 -0.044195548 -0.07172586
0003d0 ee a2 5d bd b8 95 24 3a ef ef e0 bb 65 93 8b bc
       -0.05411046 0.00062784133 -0.00686454 -0.017038057
0003e0 43 08 4b bc 33 14 e4 3a 04 9a 42 3c a1 42 cb 38
       -0.0123921065 0.0017401039 0.0118775405 9.692205e-05
0003f0 2b 8b 69 bc 72 8b c9 bb a2 a6 20 bd 4f 04 d5 bc
       -0.014254372 -0.0061506564 -0.039221413 -0.026003031
