puyo-classifier-aug10.pt (torch_old, 588988 bytes, 6 tensors)

fc.0.weight f4 [50, 2880]
0.0043194043 0.0034834265 0.0026879522 0.003811351 0.028902005 0.015195952 -0.012007634 -0.018021867
-0.01622123 -0.022410024 -0.037757058 -0.01543355 -0.004785366 -0.021917308 0.007684522 -0.027375836
-0.046340168 -0.030004444 -0.056081954 -0.038331173 -0.02538349 -0.018566467 0.030927526 0.0400893
0.019430233 0.011825674 0.017289814 0.028257962 0.0076383306 0.018632025 0.03435096 0.033142656
-0.01817339 0.014909687 0.013755113 0.030736366 0.040539555 0.04442004 0.041374393 0.038620237
0.011678523 0.010631383 -0.019365283 -0.031689454 -0.008162354 0.017914403 0.016501274 -0.0128497435
-0.0389612 -0.062042348 -0.055314273 -0.035577223 -0.025607219 0.0010605798 0.030914007 0.040563256
0.028736463 0.02977871 0.055167813 0.031083463 0.035334136 0.029515963 0.058178246 0.054100435
-0.03399406 -0.026674928 -0.01822977 0.005254038 0.033220254 0.0089392355 0.024250694 0.0506048
0.018082755 -0.0038994937 -0.029168429 -0.027127016 -0.026043264 0.012346561 0.02907236 -0.015239336
-0.017367195 -0.03499485 -0.06482916 -0.04294721 -0.049910866 -0.02872387 0.00112595 0.030521853
0.021484101 0.007848576 0.03396255 -0.0024373464 0.004067038 0.02658508 0.019583104 0.04830787
-0.050023727 -0.07431658 -0.07878051 -0.058728714 -0.060948133 -0.045103423 -0.03126865 0.011894348
0.0068883547 -0.008423862 -0.03188003 -0.04034205 -0.05809306 0.002591859 -6.7636785e-05 -0.05722074
-0.04872158 -0.06707728 -0.045670845 -0.036634933 -0.0575679 -0.06349473 -0.03341481 -0.009696967
-0.0076542026 -0.027442869 -0.05437679 -0.07545787 -0.08364378 -0.0129548125 0.0121122515 0.017169386
-0.036154833 -0.032403234 -0.036630806 -0.037131935 -0.010187041 -0.01775843 -0.0012199577 0.031879198
0.05109973 0.026020162 0.0022199675 -0.029734422 -0.039113425 -0.0066197314 0.0118923625 -0.044279255
-0.051704556 -0.055498526 -0.06815419 -0.04394137 -0.04785701 -0.059400223 -0.023420755 -0.012852566
0.0071611884 0.012866762 -0.0037668091 -0.01871028 -0.039674815 0.015754044 0.040276837 0.019152028
0.010817769 0.0045115356 0.011640397 0.0035615026 0.03229004 0.0373174 0.030008554 0.05551746
0.03272304 0.031223021 0.018642297 0.025554528 0.0004101716 0.02109101 0.01828122 -0.043326814
-0.04539158 -0.03888486 -0.062670715 -0.018490372 -0.036187265 -0.0630236 -0.022287128 0.017346546
0.06960515 0.079350844 0.053755876 0.047868066 0.0194412 0.066261396 0.08549702 0.06604523
0.030823505 0.03221644 0.045092683 0.05085025 0.04177677 0.051652346 0.03233856 0.025499897
0.013569754 0.029976448 -0.0054208394 3.3511675e-05 -0.027414998 -0.0032942672 -0.005620396 -0.075392514
-0.073875986 -0.045958444 -0.0977672 -0.055957593 -0.078213364 -0.104466364 -0.031507716 -0.0033291727
0.0550631 0.06228767 0.064217396 0.07227308 0.056476045 0.107387595 0.088256285 0.105784684
0.028603159 0.044957176 0.060250435 0.03657704 0.0072533865 0.07110454 0.06474098 0.038993586
0.026353149 0.016156165 -0.020893272 0.0011761273 -0.04446338 -0.05281563 -0.02209264 -0.07512919
-0.097096816 -0.069399916 -0.10217431 -0.08754962 -0.06417097 -0.102795 -0.05726933 -0.027368024
-0.014428824 0.027951242 0.066498995 0.08913105 0.093510374 0.12099471 0.10640252 0.11239979
00000000: ca89 8d3b 334a 643b 5b28 303b dcc7 793b
00000010: e6c3 ec3c 71f8 783c abbb 44bc 98a2 93bc
00000020: 63e2 84bc 3a95 b7bc 25a7 1abd 00dd 7cbc
00000030: 8fce 9cbb ed8b b3bc 71ce fb3b 4a43 e0bc
00000040: 30cf 3dbd e1cb f5bc 31b6 65bd 2601 1dbd
00000050: 09f1 cfbc b418 98bc b95b fd3c ae34 243d
00000060: 272c 9f3c 79c0 413c 5ea3 8d3c 3e7d e73c
00000070: f64a fa3b 30a2 983c 98b3 0c3d 98c0 073d
00000080: 5ce0 94bc c347 743c 205d 613c d5ca fb3c
00000090: ce0c 263d caf1 353d 3278 293d 4130 1e3d
000000a0: 4757 3f3c 412f 2e3c f1a3 9ebc cdcc 01bd
000000b0: 65bb 05bc 3ac1 923c ae2d 873c bb87 52bc
000000c0: c795 1fbd 1e20 7ebd 3891 62bd 6cb9 11bd
000000d0: 3bc6 d1bc 2703 8b3a 5f3f fd3c a825 263d
000000e0: bb68 eb3c 7bf2 f33c a5f7 613d bfa2 fe3c
000000f0: 87ba 103d 76cb f13c 504c 6e3d 6b98 5d3d
00000100: 5b3d 0bbd 6185 dabc 9956 95bc 112a ac3b
00000110: f611 083d df75 123c 64a9 c63c fb46 4f3d
00000120: 4922 943c a68e 7fbb a1f2 eebc 7a39 debc
00000130: af58 d5bc 3b49 4a3c 2829 ee3c 68ae 79bc
00000140: a645 8ebc c356 0fbd 27c5 84bd 6ae9 2fbd
00000150: 566f 4cbd 524e ebbc 9d94 933a f708 fa3c
00000160: 6dff af3c 5097 003c 511c 0b3d e3bb 1fbb
00000170: ca44 853b f4c8 d93c bf6c a03c 79de 453d
00000180: aee5 4cbd 4b33 98bd ad57 a1bd 858d 70bd
00000190: c0a4 79bd 5ebe 38bd 8e13 00bd 83e0 423c
000001a0: b5b7 e13b 3d04 0abc a294 02bd b53d 25bd
000001b0: fdf2 6dbd 2edc 293b 39d8 8db8 4b60 6abd
000001c0: 4890 47bd d05f 89bd 5a11 3bbd 830e 16bd
000001d0: 51cc 6bbd 8609 82bd f8dd 08bd 07e0 1ebc
000001e0: 1bd0 fabb decf e0bc 32ba 5ebd a889 9abd
000001f0: 6e4d abbd 6c40 54bc 7772 463c d0a6 8c3c
00000200: 1717 14bd 41b9 04bd 2f0a 16bd a817 18bd
00000210: 8ce7 26bc 217a 91bc fde6 9fba c393 023d
00000220: f34d 513d 3c28 d53c e07c 113b 9a95 f3bc
00000230: 6635 20bd 55ea d8bb 2fd8 423c 2a5e 35bd
00000240: 28c8 53bd 6c52 63bd 6d94 8bbd defb 33bd
00000250: b605 44bd a64d 73bd e2dc bfbc 9293 52bc
00000260: 67a8 ea3b 1ccf 523c 92dc 76bb 4d46 99bc
00000270: 0f82 22bd a00e 813c 53f9 243d b7e4 9c3c
00000280: 033d 313c 81d5 933b 5db7 3e3c 1968 693b
00000290: 9042 043d 21da 183d 80d4 f53c 4766 633d
000002a0: 9808 063d 6cc7 ff3c bbb7 983c bb57 d13c
000002b0: 4d0c d739 0ec7 ac3c 7fc2 953c 7577 31bd
000002c0: 85ec 39bd bb45 1fbd 8159 80bd 1f79 97bc
000002d0: 1939 14bd 8412 81bd 7f93 b6bc 581a 8e3c
000002e0: 258d 8e3d b282 a23d 1f2f 5c3d 4e11 443d
000002f0: 2743 9f3c 0eb4 873d 1019 af3d b942 873d
00000300: 9381 fc3c 63f5 033d 1bb3 383d 5a48 503d
00000310: 1e1e 2b3d 6991 533d 7075 043d 29e5 d03c
00000320: ac53 5e3c 2b91 f53c 4ca1 b1bb e38e 0c38
00000330: 6b95 e0bc a2e4 57bb 4d2b b8bb 6467 9abd
00000340: 4b4c 97bd ec3e 3cbd 2b3a c8bd ca33 65bd
00000350: 542e a0bd 76f2 d5bd 3c0e 01bd 402e 5abb
00000360: d889 613d 5b21 7f3d 6984 833d e903 943d
00000370: 6d53 673d 07ee db3d b6bf b43d a4a5 d83d
00000380: 2c51 ea3c 0425 383d 29c9 763d ced1 153d
00000390: d1ad ed3b 429f 913d eb96 843d bdb7 1f3d
000003a0: 8fe2 d73c ef59 843c 5e28 abbc 4928 9a3a
000003b0: 3c1f 36bd 3455 58bd a0fb b4bc 55dd 99bd
000003c0: b2da c6bd 8b21 8ebd c440 d1bd 374d b3bd
000003d0: 126c 83bd 2f86 d2bd 3f93 6abd e832 e0bc
000003e0: e066 6cbc 01fa e43c a030 883d 578a b63d
000003f0: 5e82 bf3d 13cc f73d 90e9 d93d dc31 e63d

fc.0.bias f4 [50]
-0.030204015 0.07657197 -0.03230746 -0.0018432918 -0.0047106114 -0.0136110755 -0.02995055 0.091068625
-0.007773297 -0.009848048 -0.058492105 -0.0053879595 0.016584374 -0.08961233 -0.05245056 -0.09750338
0.117563054 -0.0048533813 -0.047417168 -0.0056511206 -0.07169438 0.03156475 -0.058368415 -0.036937095
-0.015778594 -0.06530218 -0.030453196 0.07223872 -0.031247078 -0.02692209 0.04811231 -0.04219737
-0.011135981 -0.01939168 -0.0628286 -0.025488852 0.008942444 0.119793735 0.017552216 0.014580895
0.11596303 0.04702676 -0.01867305 -0.026324779 -0.0587724 0.0153651545 -0.08368161 0.037176427
-0.019732367 0.0023738493
00000000: 696e f7bc c4d1 9c3d d454 04bd 9c9a f1ba
00000010: 795b 9abb fd00 5fbc db5a f5bc 3082 ba3d
00000020: 24b7 febb b559 21bc 6b95 6fbd 7b8d b0bb
00000030: f4db 873c ab86 b7bd 66d6 56bd daaf c7bd
00000040: e6c4 f03d 1d09 9fbb 8138 42bd 092d b9bb
00000050: 81d4 92bd 0a4a 013d b813 6fbd 5a4b 17bd
00000060: 1c42 81bc 26bd 85bd fb78 f9bc e5f1 933d
00000070: dff9 ffbc b78b dcbc 6a11 453d 26d7 2cbd
00000080: b173 36bc 4ddb 9ebc 48ac 80bd ffcd d0bc
00000090: 5483 123c 6b56 f53d aac9 8f3c b5e4 6e3c
000000a0: 067e ed3d 229f 403d 39f8 98bc 10a7 d7bc
000000b0: 54bb 70bd 21be 7b3c 4461 abbd 4f46 183d
000000c0: c6a5 a1bc 9592 1b3b

fc.2.weight f4 [50, 50]
0.15735157 -0.08616453 0.1812772 0.03599793 0.19910653 0.09571296 0.19330221 -0.11226259
0.008264995 -0.091411255 -0.10152582 -0.009709573 0.11651105 0.11023733 0.12789822 -0.0603573
0.12411725 0.02281025 0.05446091 0.005024049 0.08300678 -0.16498117 0.038740415 0.013047459
0.0951639 -0.07815746 -0.015229478 -0.0065083136 0.046139166 -0.03011911 0.13703033 -0.03207333
0.028305063 -0.06347635 -0.11960285 0.119654015 0.06451532 -0.04404582 -0.09545277 0.16805494
-0.1602071 -0.034525983 -0.104564145 -0.040971503 0.19011985 -0.22210906 0.06722806 0.00086779485
-0.136118 0.01238009 0.1584917 -0.024462413 0.025298962 -0.07403132 -0.015223715 -0.0048218183
-0.15035498 0.034630947 0.10808374 -0.21920502 0.03379927 -0.13009779 -0.03230999 0.07911755
-0.11616421 0.12867048 -0.05970055 0.026224647 0.04982522 -0.029599305 0.10246975 -0.016742377
0.019207492 0.11132877 -0.09650107 -0.023306869 -0.058969475 -0.04323216 -0.045749396 -0.006510404
-0.0063388166 -0.07828994 -0.019572277 -9.9016455e-05 0.14442872 -0.15276419 -0.037075445 -0.13605651
0.034046143 -0.01616616 0.1418629 -0.039471522 0.18206742 -0.084015384 -0.017594831 -0.04275637
-0.04770866 -0.10334746 -0.0835267 0.049227286 -0.19346212 -0.101065435 0.30059305 0.045316823
-0.095665805 0.0017689246 0.24617603 -0.13546701 -0.020469533 -0.057183083 -0.29692337 0.048017856
-0.012851564 -0.2834975 0.30301356 -0.16925335 0.06919696 -0.15292215 -0.061930988 -0.00017553117
0.13497764 -0.017183568 0.111937605 -0.23397444 -0.009639094 0.13851766 -0.037441544 -0.008485076
0.04364542 -0.15427032 -0.03276985 0.19863597 -0.036987443 -0.05807959 -0.21000147 0.24652167
-0.060371958 -0.06542918 0.12674637 -0.07246479 0.031334735 0.16006447 -0.21811819 -0.3109505
0.032339472 -0.14041021 -0.2521104 -0.101735726 -0.010355284 0.013893508 0.04844861 -0.1506731
0.0010857742 -0.03149 -0.086979195 -0.0027526796 -0.10089359 -0.0473353 -0.14232764 -0.10002192
0.023058971 0.10476406 -0.090204775 0.16002539 -0.101168744 0.10236498 0.076051876 0.03758929
0.15977271 -0.013877271 0.016260292 -0.084277205 0.20859285 0.033518396 0.017210225 0.092428304
-0.11505192 -0.016539987 -0.055119902 -0.08104187 0.058280725 -0.120497994 0.011234168 0.03864109
0.12892172 0.107220456 0.03539704 -0.17405577 -0.18740995 -0.047219407 0.037124034 0.09649568
0.149967 0.045831766 0.06465458 -0.012749134 0.058560412 -0.0867903 -0.123020746 0.09994875
0.1210675 0.16255066 0.008615131 -0.102922365 -0.09689676 0.029773036 -0.07346748 0.18435545
-0.17981769 -0.19715126 -0.21588175 0.09020206 -0.071980454 0.075357124 -0.25502062 -0.12489415
0.010683905 -0.1307923 -0.134374 -0.015418983 -0.19930239 0.08083007 -0.06444778 -0.04082574
-0.043353967 0.068854146 -0.04788271 0.08769318 0.053075865 0.006715682 0.12760848 -0.1374787
-0.040809613 -0.039865255 -0.11389087 -0.12038457 0.054233123 0.23246424 0.068582065 0.0095965145
0.15853699 -0.049171828 0.072706975 -0.037220873 -0.055543575 -0.015264695 -0.10718757 0.027179124
-0.038249012 -0.099500276 -0.04581228 0.041225 -0.0016801023 0.048163176 0.009866062 0.026095113
00000000: c520 213e 0777 b0bd bba0 393e 9172 133d
00000010: 95e2 4b3e 2805 c43d 04f1 453e eee9 e5bd
00000020: e769 073c d335 bbbd c5ec cfbd e714 1fbc
00000030: 589d ee3d 1cc4 e13d c0f7 023e 3739 77bd
00000040: 2f31 fe3d 90dc ba3c 6712 5f3d c7a0 a43b
00000050: 75ff a93d d3f0 28be 45ae 1e3d 02c5 553c
00000060: 4ae5 c23d 0511 a0bd 0f85 79bc b143 d5bb
00000070: 6cfc 3c3d 5abc f6bc ae51 0c3e 535f 03bd
00000080: 05e0 e73c e3ff 81bd 57f2 f4bd 2a0d f53d
00000090: 9c20 843d 6469 34bd be7c c3bd 9816 2c3e
000000a0: 540d 24be 1e6b 0dbd ba25 d6bd bcd1 27bd
000000b0: c7ae 423e 8f70 63be ddae 893d ba7c 633a
000000c0: 8462 0bbe dcd5 4a3c a64b 223e 6665 c8bc
000000d0: c53f cf3c bc9d 97bd e46c 79bc 5800 9ebb
000000e0: a8f6 19be 2ed9 0d3d 025b dd3d 4877 60be
000000f0: 1a71 0a3d 5b38 05be 7b57 04bd 6208 a23d
00000100: 80e7 edbd 32c2 033e 9088 74bd 12d5 d63c
00000110: 8815 4c3d 3e7a f2bc a9db d13d 4f27 89bc
00000120: 0859 9d3c 5700 e43d 5aa2 c5bd 0cee bebc
00000130: fa89 71bd 3514 31bd b863 3bbd 3a55 d5bb
00000140: d9b5 cfbb 7a56 a0bd 0a56 a0bc 0ea7 cfb8
00000150: 1fe5 133e 376e 1cbe 6cdc 17bd 6652 0bbe
00000160: f873 0b3d e56e 84bc 8244 113e e4ac 21bd
00000170: e26f 3a3e 4210 acbd 0923 90bc 4e21 2fbd
00000180: 286a 43bd d5a7 d3bd 0c10 abbd 8da2 493d
00000190: ef1a 46be 65fb cebd 55e7 993e 229e 393d
000001a0: 6fec c3bd 43db e73a 9215 7c3e ddb7 0abe
000001b0: b9af a7bc cf38 6abd 5706 98be 5fae 443d
000001c0: 5e8f 52bc 9626 91be 9824 9b3e c050 2dbe
000001d0: 23b7 8d3d a097 1cbe 59ab 7dbd ca0e 38b9
000001e0: 9437 0a3e 8ec4 8cbc 8b3f e53d ff96 6fbe
000001f0: 4aed 1dbc 93d7 0d3e 4e5c 19bd fd04 0bbc
00000200: 8ac5 323d 0af9 1dbe ae39 06bd 3a67 4b3e
00000210: 2580 17bd dde4 6dbd a00a 57be 2d70 7c3e
00000220: 9648 77bd bcff 85bd cdc9 013e 6b68 94bd
00000230: da58 003d f1e7 233e 605a 5fbe e734 9fbe
00000240: 6576 043d b2c7 0fbe 9d14 81be d25a d0bd
00000250: 36a9 29bc 99a1 633c 0d72 463d 0d4a 1abe
00000260: 8950 8e3a a9fb 00bd 2622 b2bd 4d66 34bb
00000270: 4ca1 cebd a9e2 41bd 56be 11be 4bd8 ccbd
00000280: 2be6 bc3c 8a8e d63d 48bd b8bd b2dd 233e
00000290: 8f31 cfbd bba4 d13d 16c1 9b3d 3af7 193d
000002a0: 759b 233e 7e5d 63bc 4e34 853c 8799 acbd
000002b0: 5d99 553e 964a 093d 75fc 8c3c 0d4b bd3d
000002c0: 57a0 ebbd de7e 87bc 68c5 61bd 48f9 a5bd
000002d0: c5b7 6e3d a7c7 f6bd 840f 383c 1f46 1e3d
000002e0: 0e04 043e 6696 db3d 7dfc 103d ad3b 32be
000002f0: 65e8 3fbe 2369 41bd 5f0f 183d 879f c53d
00000300: f390 193e 17ba 3b3d 9f69 843d bee1 50bc
00000310: 0bdd 6f3d 1dbf b1bd 4df2 fbbd eeb1 cc3d
00000320: 3df2 f73d ae73 263e 7a26 0d3c f6c8 d2bd
00000330: cf71 c6bd 95e6 f33c 1e76 96bd adc7 3c3e
00000340: 2122 38be 05e2 49be 1b10 5dbe dcbb b83d
00000350: 7d6a 93bd d654 9a3d 1092 82be 81c8 ffbd
00000360: 8c0b 2f3c 6bee 05be 5699 09be e79f 7cbc
00000370: ed15 4cbe 3c8a a53d 33fd 83bd e438 27bd
00000380: ee93 31bd 6703 8d3d a920 44bd 7b98 b33d
00000390: 1466 593d 390f dc3b ccab 023e 37c7 0cbe
000003a0: fb27 27bd c049 23bd 9e3f e9bd 2f8c f6bd
000003b0: 8d23 5e3d 1b0b 6e3e c174 8c3d b33a 1d3c
000003c0: 8557 223e 6668 49bd 65e7 943d ea74 18bd
000003d0: a981 63bd c518 7abc 2885 dbbd c1a6 de3c
000003e0: ffaa 1cbd cdc6 cbbd a8a5 3bbd 8cdb 283d
000003f0: e136 dcba c046 453d 43a5 213c 6bc5 d53c

fc.2.bias f4 [50]
0.12725466 -0.095220864 -0.08524505 -0.15342116 0.17313646 0.05799733 0.13080204 -0.04914983
-0.14819327 -0.0036818685 0.007518971 -0.008664367 0.049621914 -0.01190173 0.08594852 -0.106634855
-0.05563062 -0.0293346 -0.11117833 -0.04497469 -0.0044886786 0.008728441 0.14865044 -0.1924112
-0.020912014 -0.097918324 -0.15283762 0.24765144 -0.017769448 0.02768795 -0.0032012537 0.18349662
0.042387262 0.056004826 -0.07452351 0.08006563 -0.0714614 -0.083292864 -0.07829977 0.04457923
0.038498607 -0.023491647 -0.08623754 0.0056629246 0.02516923 0.017955089 -0.0065217065 0.038070574
0.10628165 0.08010295
00000000: 0c4f 023e 2803 c3bd f594 aebd 701a 1dbe
00000010: af4a 313e 9c8e 6d3d f8f0 053e 5551 49bd
00000020: fabf 17be 814b 71bb b361 f63b fdf4 0dbc
00000030: 5940 4b3d 79ff 42bc c705 b03d 6063 dabd
00000040: efdc 63bd 1d4f f0bc 77b1 e3bd 6137 38bd
00000050: c415 93bb bc01 0f3c d237 183e 7107 45be
00000060: ac4f abbc 6789 c8bd 7781 1cbe 5798 7d3e
00000070: 3c91 91bc d7d1 e23c 20cc 51bb 8ae6 3b3e
00000080: 449e 2d3d 5165 653d c89f 98bd 73f9 a33d
00000090: 5b5a 92bd 7395 aabd a15b a0bd b698 363d
000000a0: b7b0 1d3d 8e71 c0bc 4f9d b0bd 0e90 b93b
000000b0: b32f ce3c 8d16 933c 0ab4 d5bb e4ef 1b3d
000000c0: 32aa d93d 040d a43d

fc.4.weight f4 [7, 50]
-0.24703085 -0.022339925 -0.44622102 -0.011179991 0.008496675 -0.049300656 -0.010874788 -0.016204143
0.030300386 0.026614673 -0.1416397 -0.16053371 -0.039799783 -0.22518276 0.057383135 -0.08630578
0.037693545 0.14350043 0.12396396 -0.14333272 -0.058330983 0.16060509 -0.22783577 -0.18814626
-0.1597626 0.09299653 -0.069577955 -0.13831124 -0.14890899 0.15263243 -0.12911353 0.08754438
-0.1423588 0.10194654 -0.04454515 0.15431085 -0.07439351 0.07537881 -0.13955344 0.16904801
0.12482573 0.0015901849 0.021345679 -1.1982025e-05 -0.11224668 0.054265987 -0.14594103 -0.18447378
-0.10660986 0.046793688 -0.037139725 -0.10977947 -0.37029922 -0.02594124 0.15857358 0.09250838
0.06424401 0.09035649 0.041495387 -0.21517937 0.06676617 0.16943131 0.092503175 0.042222004
0.12665904 -0.10829002 0.023935577 0.096336 0.10305613 0.07574681 -0.2333008 -0.13605754
0.12853515 -0.2955969 -0.011575478 -0.0046860483 -0.10347611 0.12180904 -0.017452242 0.12624995
0.017240565 0.12705505 0.00063815305 0.07193922 -0.15299429 0.101157136 -0.1304407 -0.06399283
0.113109805 0.11487083 0.085883774 0.11540326 -0.054292593 -0.032966398 0.033817258 -0.14516915
-0.14053033 0.14809161 0.26651937 0.058227625 -0.15608454 0.071778245 -0.32590106 0.10083157
-0.026259765 -0.029604254 0.05926656 0.068101935 -0.060235664 0.08050365 -0.26460245 -0.092972346
-0.0326217 -0.042294268 0.015267433 0.11656328 -0.1160236 0.062157165 0.045301083 0.14741448
-0.0070961476 0.16674946 -0.09595984 -0.11042871 -0.12373483 0.018629327 0.1664586 0.051370487
-0.20237291 -0.008012636 -0.06846937 -0.13902183 -0.22606327 -0.11553727 -0.1780838 0.016472373
0.06155543 0.04361175 0.16614601 0.0714422 -0.28018287 0.11480553 0.04138629 5.914899e-05
-0.034413885 -0.21120249 0.008726179 0.18870409 -0.19211534 -0.13228479 0.15530577 -0.12739773
-0.048753634 0.096381485 0.067429796 0.13197468 -0.16907181 0.113205306 0.02560227 0.021789234
-0.14893188 -0.0036483388 -0.0903756 -0.048463706 -0.20225222 -0.053476244 0.007071852 -0.08211782
0.09274607 0.13249767 -0.021054363 0.020073581 -0.09822572 0.14839315 -0.013764962 0.08836909
-0.15265201 -0.1708398 0.036828037 0.0849014 -0.052384928 -0.012213706 -0.33880225 -0.01588589
0.07943985 -0.10059952 -0.050413515 0.09020351 -0.03022089 0.10870983 0.15819149 0.038825292
-0.14462736 0.0007228596 0.16597526 0.15233035 -0.103775784 0.2992294 -0.041451305 -0.08867014
0.10934185 -0.019265858 -0.16153575 -0.11381529 -0.21729478 0.061408512 -0.10024165 0.03510391
-0.06437274 -0.0084794285 -0.17513233 -0.15192582 0.02881912 0.063159324 -0.10207523 -0.043615695
-0.13926388 -0.14829591 -0.020703932 -0.05379689 -0.3545043 -0.06365592 0.037158675 0.012514114
0.024511654 0.022197818 0.09462141 -0.08672282 -0.06878129 0.08180639 0.19915994 0.16808458
0.09171658 -0.1110163 -0.1338385 0.21125802 -0.013250117 -0.3007471 -0.08769087 0.11197125
-0.18872367 0.12350192 -0.031764526 3.5206706e-06 0.005395247 -0.01483923 0.20619456 -0.090025924
-0.09043944 -0.13398813 0.08689619 -0.17499103 0.053155567 -0.021486238 -0.079858914 0.06255968
00000000: a8f5 7cbe 3802 b7bc 1577 e4be 482c 37bc
00000010: a335 0b3c 7cef 49bd 2b2c 32bc 8dbe 84bc
00000020: 8438 f83c 0407 da3c ff09 11be f362 24be
00000030: 1905 23bd 4f96 66be 940a 6b3d 16c1 b0bd
00000040: 8c64 1a3d c7f1 123e d1e0 fd3d d0c5 12be
00000050: 78ec 6ebd a975 243e c84d 69be 6aa9 40be
00000060: cf98 23be f774 be3d e37e 8ebd 76a1 0dbe
00000070: 997b 18be ad4b 1c3e 5636 04be 784a b33d
00000080: 81c6 11be 59c9 d03d fa74 36bd aa03 1e3e
00000090: a05b 98bd 3560 9a3d 19e7 0ebe ec1a 2d3e
000000a0: a2a4 ff3d c06d d03a 22dd ae3c 6806 49b7
000000b0: 96e1 e5bd 0346 5e3d 9171 15be b2e6 3cbe
000000c0: 4556 dabd bdaa 3f3d d31f 18bd 0fd4 e0bd
000000d0: dc97 bdbe b982 d4bc 1d61 223e 0975 bd3d
000000e0: 5d92 833d d30c b93d 11f7 293d fb57 5cbe
000000f0: b4bc 883d 677f 2d3e 4e72 bd3d fbf0 2c3d
00000100: e8b2 013e 28c7 ddbd 8b14 c43c cf4b c53d
00000110: 180f d33d 2521 9b3d 68e6 6ebe ab52 0bbe
00000120: b89e 033e 7a58 97be 13a7 3dbc 6c8d 99bb
00000130: 48eb d3bd 0577 f93d 01f8 8ebc ab47 013e
00000140: 163c 8d3c b81a 023e ba49 273a df54 933d
00000150: 89aa 1cbe 792b cf3d 3f92 05be ac0e 83bd
00000160: 1da6 e73d 6641 eb3d d5e3 af3d 8b58 ec3d
00000170: e961 5ebd c607 07bd f783 0a3d 39a7 14be
00000180: 2fe7 0fbe 54a5 173e 3a75 883e 1780 6e3d
00000190: a0d4 1fbe 7900 933d 81dc a6be c880 ce3d
000001a0: b81e d7bc 9f84 f2bc 7ec1 723d 0779 8b3d
000001b0: acb9 76bd 19df a43d f979 87be 4968 bebd
000001c0: 559e 05bd c13c 2dbd 4124 7a3c bbb8 ee3d
000001d0: c89d edbd 8398 7e3d a18d 393d d2f3 163e
000001e0: cd86 e8bb 5fc0 2a3e 9886 c4bd 7328 e2bd
000001f0: b068 fdbd 889c 983c 2074 2a3e dc69 523d
00000200: d83a 4fbe 6e47 03bc ab39 8cbd bd5b 0ebe
00000210: 217d 67be ce9e ecbd 9a5b 36be 12f1 863c
00000220: 8c21 7c3d 3ca2 323d 2e22 2a3e 4a50 923d
00000230: 2174 8fbe 291f eb3d ac84 293d bf16 7838
00000240: 93f5 0cbd 7745 58be 3ff8 0e3c a53b 413e
00000250: e2b9 44be aa75 07be 7a08 1f3e 8d74 02be
00000260: e4b1 47bd a863 c53d a218 8a3d 5f24 073e
00000270: 2921 2dbe 2fd8 e73d dabb d13c 567f b23c
00000280: 9981 18be f818 6fbb d816 b9bd e181 46bd
00000290: 351b 4fbe e809 5bbd ffba e73b 632d a8bd
000002a0: a7f1 bd3d 78ad 073e 337a acbc 5a71 a43c
000002b0: 912a c9bd 60f4 173e 6f86 61bc dafa b43d
000002c0: cf50 1cbe a1f0 2ebe ffd8 163d c9e0 ad3d
000002d0: 9491 56bd ff1b 48bc 7d77 adbe 2023 82bc
000002e0: 5cb1 a23d 1f07 cebd 677e 4ebd 9ebc b83d
000002f0: cd91 f7bc 42a3 de3d f3fc 213e 4507 1f3d
00000300: 3219 14be 497e 3d3a 6bf5 293e 7dfc 1b3e
00000310: 6688 d4bd 9934 993e d8c8 29bd b198 b5bd
00000320: 9fee df3d 6fd3 9dbc a169 25be fe17 e9bd
00000330: 8682 5ebe 7e87 7b3d 7f4b cdbd 1ec9 0f3d
00000340: dbd5 83bd 4ded 0abc e455 33be 7192 1bbe
00000350: 1316 ec3c ad59 813d d10c d1bd 5fa6 32bd
00000360: 319b 0ebe e2da 17be 4b9b a9bc 215a 5cbd
00000370: 9681 b5be 095e 82bd b233 183d 0008 4d3c
00000380: aacc c83c 33d8 b53c dfc8 c13d bc9b b1bd
00000390: 34dd 8cbd 1c8a a73d 95f0 4b3e 5d1e 2c3e
000003a0: e7d5 bb3d 845c e3bd f60c 09be 0654 583e
000003b0: 0517 59bc 86fb 99be 4597 b3bd 2f51 e53d
000003c0: c740 41be 93ee fc3d 851b 02bd a944 6c36
000003d0: 9dca b03b 3e20 73bc ab24 533e 835f b8bd
000003e0: 5038 b9bd 2f34 09be a1f6 b13d d930 33be
000003f0: a7b9 593d e803 b0bc 128d a3bd 4a1f 803d

fc.4.bias f4 [7]
-0.16411416 0.24909055 -0.09898242 -0.12698212 0.04137092 0.06344715 0.07354575
00000000: 8b0d 28be 9811 7f3e 4cb7 cabd 9a07 02be
00000010: 8e74 293d 94f0 813d 279f 963d
